SavedNets/Acrobot-v1_dqn.pth (torch, 23971 bytes, 12 tensors)

layer1.weight f4 [64, 6]
000000 fc 51 90 be 53 3b 44 bd d3 2b 52 be a1 51 d1 be
       -0.2818755 -0.04790814 -0.2052453 -0.4088259
000010 79 a9 8c be 2d 26 18 3e 12 f3 33 be 43 1d 07 be
       -0.27473047 0.14858313 -0.17573193 -0.13194756
000020 89 ee 4b 3e 46 3c 62 be cb 50 28 3e e0 31 8e 3d
       0.19915213 -0.22093305 0.1643707 0.06943107
000030 77 0a e9 3e ce 6d 84 3e 99 81 81 bd af 3a 51 3d
       0.45515797 0.25865024 -0.06323547 0.051081356
000040 68 c8 08 be a4 58 30 3d 96 23 9d 3d c3 c2 c6 3e
       -0.13357699 0.043053284 0.07672803 0.38820466
000050 f0 49 76 3e 90 24 a6 be 6e c3 e4 bd 29 da ba 3c
       0.24051642 -0.3244977 -0.11170088 0.022809105
000060 60 ab 16 3f 74 a1 27 be 2e e6 9b 3d a4 11 2d 3e
       0.5885525 -0.16370183 0.07612263 0.1690126
000070 6e 77 c0 3d 3f 38 45 be 41 f1 9c 3e 18 45 36 bd
       0.093977794 -0.19259737 0.30652812 -0.044499487
000080 13 d4 af 3e c7 53 ba be 0e 2d 98 3d 01 e8 30 3d
       0.34341487 -0.36392042 0.074304685 0.043190006
000090 9b a4 02 3f 07 c3 86 be fe a4 f9 3e e4 99 80 be
       0.5103242 -0.2632067 0.48758692 -0.2511741
0000a0 9a 71 52 be da 5d 6c be a8 b3 86 3e f5 cb d5 bc
       -0.20551148 -0.23082677 0.26308942 -0.02609823
0000b0 07 3b c8 bc 82 25 6d 3e d0 79 84 be 0b 20 44 be
       -0.024442209 0.2315884 -0.25874186 -0.19152848
0000c0 6b 5f 04 3f 14 fa e8 3d 49 8c 92 3e 02 39 9a 3e
       0.51708096 0.113758236 0.28622654 0.30121619
0000d0 9d a7 1a 3e 57 4c 0d 3e 58 4f 13 3f ff 2a 77 bd
       0.15103002 0.13798653 0.57542944 -0.06034374
0000e0 39 e8 a1 be 7b 71 b4 be d5 de 3d 3d 9e 1a 22 bd
       -0.31622484 -0.3524283 0.046355087 -0.039576165
0000f0 02 ae 68 3e 3b 46 d4 3e 01 6c 7d 3e 0d 43 df be
       0.22722629 0.41459832 0.24748231 -0.43605843
000100 d0 1b c5 bd 5f 10 25 bd 4e f4 e3 3e 79 00 9f be
       -0.096244454 -0.040298816 0.44522327 -0.31055048
000110 ee 25 bf bd 71 e1 90 bd d1 4c fa bd 98 2c ce bd
       -0.093334064 -0.070742495 -0.12221683 -0.10067099
000120 13 4a 1e be 77 bf 37 3f e2 50 86 3e cc 32 02 bf
       -0.15457945 0.7177653 0.26233584 -0.5085876
000130 93 dd 9d bd f2 4b cf bc ca 61 e7 3e 93 08 e5 be
       -0.077082776 -0.025304768 0.45191795 -0.44733104
000140 26 21 b1 3c 18 fd 98 3e 44 74 3c be b8 19 e6 bd
       0.021622252 0.29880595 -0.18403727 -0.11235374
000150 fc 54 9b be 14 97 35 3f f0 5f f3 3d bc 58 1b bf
       -0.30338275 0.7093365 0.11883533 -0.6068227
000160 64 0d 5b bc 64 1a 0d be b9 26 1c bd a1 78 c1 3e
       -0.013369892 -0.13779598 -0.038122866 0.37787345
000170 2b b7 c2 be b3 76 43 be 2c 6d c3 3e 2d ae cd be
       -0.3803037 -0.19088249 0.3816923 -0.40171948
000180 2e f0 12 3e e7 24 a2 3e 53 39 b7 3e 90 a0 42 be
       0.14349434 0.3166878 0.35785922 -0.19006562
000190 89 84 f6 3d f5 6a a0 3d 9f b0 a1 3d e3 f6 cf be
       0.12036998 0.078329004 0.07895016 -0.40618047
0001a0 3a 95 d5 3e cb cc 2f 3f 3e a0 68 bc ed 56 7f bd
       0.41715413 0.68671864 -0.014198361 -0.06233876
0001b0 67 a0 33 be d7 2a 2c bf 90 49 cd 3d 42 a3 44 be
       -0.17541657 -0.6725287 0.100237966 -0.19202903
0001c0 7d 97 4f bc 1b bf e7 3b 16 f3 10 3f 0c 3d 7d 3e
       -0.012670395 0.007072342 0.5662092 0.24730319
0001d0 74 85 22 3d 9b de 3f be 51 bc 0c 3e 92 dd 0c 3d
       0.039678052 -0.18737261 0.13743712 0.034390993
0001e0 34 d4 47 be f1 9b bd 3e d6 41 fa 3e 81 20 0d bf
       -0.19514543 0.37033036 0.48878354 -0.5512772
0001f0 a4 e7 20 ba 88 b9 97 3c cb 4a 15 be 58 bc 27 bf
       -0.0006138033 0.018521085 -0.14579313 -0.65521765
000200 f5 c1 dc 3e 80 87 0c bd c6 4b 3a 3e 2d 70 85 3c
       0.43116727 -0.03430891 0.18192968 0.016288841
000210 30 59 4e 3e 33 db 20 bf 59 76 ff bc b8 d0 0b 3f
       0.2015121 -0.6283447 -0.031184362 0.54615355
000220 6c e8 b9 3c dc ca 2c bd 74 e5 68 3e c4 43 f4 3e
       0.022693835 -0.04218565 0.2274378 0.4770795
000230 84 36 85 be 12 07 cb 3e fe 17 2f be 26 3a 18 bd
       -0.26018155 0.39653832 -0.17098996 -0.03716483
000240 1a 4b ca 3e 06 5e 19 bf 46 b5 c1 3d 85 ce 09 3f
       0.39510423 -0.59909093 0.09458403 0.5383075
000250 68 c9 ea 3c 96 e7 18 bd 49 16 f9 3c 03 6c 3a 3f
       0.028660491 -0.037330233 0.030406134 0.7282106
000260 8c 1f 9b 3e 49 88 99 3e 36 f1 65 be 27 cf b7 bc
       0.30297506 0.2998679 -0.22455296 -0.022437645
000270 ca c9 80 3e 25 1d 3c be 3c 40 f1 3e aa ce b4 3e
       0.25153953 -0.18370493 0.4711932 0.35313922
000280 d4 4c 7b 3e 90 fe fd 3d 4c ff cd 3e cb 17 2a be
       0.24541026 0.124020696 0.4023384 -0.16610639
000290 c3 da 8b be be 71 a8 be da 0b 91 be c6 6a 25 be
       -0.2731534 -0.32899278 -0.28329355 -0.16154012
0002a0 4d 59 9a 3e 6b a5 79 3e 86 89 38 bd d7 a4 52 bf
       0.30146256 0.24379508 -0.045053028 -0.82282776
0002b0 34 9a 94 3e f4 68 80 3e 28 b1 cd 3e 26 15 2c 3f
       0.29023898 0.25080073 0.40174222 0.6721977
0002c0 51 93 f9 bd 58 de e1 be a8 50 13 be ec 12 43 bd
       -0.121863015 -0.44114947 -0.14386237 -0.047625467
0002d0 97 21 29 be 93 ce 40 3f df e9 0d 3e 91 3f 9a 3e
       -0.1651672 0.7531521 0.13858746 0.30126622
0002e0 b0 02 6d bc 76 9a 09 3c db d8 df bc fb d7 c0 be
       -0.014465973 0.008398643 -0.027325084 -0.3766478
0002f0 2b 9a b3 3e 5c 98 42 3e 0e c8 33 3e 1b 44 a2 be
       0.35078558 0.19003433 0.17556784 -0.31692585
000300 62 6d e1 3d 74 f5 9c be cd 4e a3 3e 79 bd 04 3f
       0.11007191 -0.30656016 0.31896058 0.5185161
000310 ba bf 0f bc 60 e7 ae bb 92 25 e9 bc 9e 64 0b 3f
       -0.0087737385 -0.0053376406 -0.028460298 0.54450405
000320 29 c1 56 3d 90 7f 59 3e 41 bc 6a be df f4 ee 3e
       0.052430306 0.21240067 -0.22923376 0.46671197
000330 50 bc 13 3f 4e 51 3b 3e 03 f4 94 3e 8f 8b f5 3d
       0.5770922 0.18292734 0.29092416 0.11989509
000340 5b 12 66 be 81 7a 96 bc 18 13 bf 3e ce be 98 be
       -0.2246794 -0.018368961 0.37319255 -0.29833072
000350 d7 d7 7c 3e 97 d3 06 3f e8 77 d4 be 45 e2 6a be
       0.24691711 0.5266661 -0.4149773 -0.22937877
000360 c3 b6 55 be 4e e1 0c be 28 58 ca bb c9 5b 5b 3e
       -0.208705 -0.13757822 -0.00617506 0.21421732
000370 cc 88 fc be 34 4b 8f be b8 fa 93 3e 70 39 63 3d
       -0.49323118 -0.27987063 0.2890222 0.0554747
000380 03 7f e5 bd 23 96 bd 3e 08 0a 17 3e cf c0 64 3e
       -0.11205866 0.37028608 0.1474992 0.22339176
000390 d7 95 09 be d1 69 03 bf 4f a6 64 3e b3 4c 25 bf
       -0.13436066 -0.5133334 0.22329067 -0.6457016
0003a0 fd 3a 90 bd 0b 4e 81 3c b9 75 e1 3e 69 a4 23 bf
       -0.07042501 0.015784284 0.44035128 -0.63922745
0003b0 54 cb e8 3e 27 6a bb 3c f8 21 16 3e 5f 5a 44 bd
       0.45467627 0.022877766 0.14661396 -0.047937747
0003c0 4e 42 e4 be 61 5b c2 be eb 42 a1 3c 87 c1 86 be
       -0.44581836 -0.37960342 0.01968523 -0.26319525
0003d0 47 9f 40 3d 71 3a c0 be c3 36 c9 3d 9a 39 36 bd
       0.0470269 -0.37544587 0.09824898 -0.044488527
0003e0 4f 5e fc 3d 8e 5b db be 47 96 5b 3e 4b 5b 8b be
       0.123226754 -0.42843288 0.21444045 -0.27218089
0003f0 09 81 dd 3e 0c d1 0c 3f 5e a7 a5 bd 7b 49 4c be
       0.4326251 0.5500648 -0.080885634 -0.19949906

layer1.bias f4 [64]
000000 48 25 01 3f 42 25 0c 3f f3 89 c2 3e 82 8e e2 3e
       0.5044751 0.5474435 0.37995872 0.4424935
000010 ac 11 61 3e d7 67 a4 bd dd 3d b1 3e 5e 54 17 3f
       0.21979398 -0.080276184 0.3461751 0.5911311
000020 94 d5 be 3e dd d6 f0 bd 15 48 13 3e 49 f8 a7 3e
       0.37272322 -0.11759732 0.14382966 0.32806614
000030 0c d8 12 3e 03 58 db 3d e2 7f 84 be 4f 5d 49 bd
       0.14340228 0.10710146 -0.25878817 -0.04916125
000040 96 17 a1 3e d0 16 5c be c8 ca 8e 3e 52 16 a8 3e
       0.31463307 -0.21493077 0.27889085 0.3282953
000050 69 81 a9 3e 04 8e e6 3e fb f2 e2 bd 41 c1 b4 3e
       0.33106545 0.45030224 -0.11081501 0.3530369
000060 44 cc 77 3e 1b b8 c8 3c 85 98 16 3e 30 9e 24 3f
       0.24199015 0.02450185 0.14706619 0.64303875
000070 2d f6 e8 3d 9a ce cc 3d fd 38 57 3e 93 5e 7f be
       0.11375079 0.100003436 0.21017833 -0.24938421
000080 25 03 3d bd f3 67 12 bc 2b 66 c3 3e c0 83 66 3e
       -0.046145577 -0.008935916 0.38163885 0.22511196
000090 53 e9 22 bb 7f 31 d9 3e e4 74 f9 3e 24 3d 3a 3e
       -0.002485831 0.42420575 0.48721993 0.18187386
0000a0 0b 9a 1b be 76 04 72 3e 82 b6 10 bd 48 1a f9 3e
       -0.15195481 0.23634514 -0.035330303 0.48652864
0000b0 33 de c9 3d 87 e6 9a 3d 1d ad 1e 3f 6a e1 2d be
       0.09856834 0.07563501 0.619829 -0.1698052
0000c0 49 28 4f 3d 5d 89 1d 3f 3e ec 54 bd 5a 78 c5 3d
       0.05057553 0.61537725 -0.05198311 0.09642096
0000d0 71 3e 18 3f 53 1e f6 3d 3b f1 d8 3e b3 d7 d0 3e
       0.5947028 0.12017503 0.42371544 0.40789565
0000e0 28 b6 91 3e 2f 0a fc bd bf 41 3f be a7 93 80 be
       0.28459287 -0.1230663 -0.18677424 -0.2511265
0000f0 da 40 87 be 5c cb 0e 3e c5 dc 8a 3e 40 9c 86 be
       -0.26416665 0.13944763 0.2712156 -0.26291084

layer2.weight f4 [32, 64]
000000 d7 60 02 be 60 f1 13 bc b5 66 78 bd 38 d6 dd 3b
       -0.12732254 -0.009029716 -0.060644824 0.0067699216
000010 aa 5f 03 3c 6a c6 e4 3d 2b c8 b5 bc 35 e3 f4 bd
       0.008018414 0.11170657 -0.022190174 -0.11957399
000020 bc 05 c5 bd 88 ad fd bd 0c de 39 bd b2 a9 83 bb
       -0.09620234 -0.12386614 -0.045377776 -0.004018032
000030 b7 1a 48 3c d1 78 be 3b 5e 3f cc 3c 13 37 da bb
       0.012213401 0.0058127423 0.02493256 -0.0066593974
000040 bb 36 c8 bc dc 30 93 bd ae 66 12 3b 12 eb b0 39
       -0.02444016 -0.071870536 0.0022339034 0.00033744477
000050 9c 44 56 bd 22 53 98 3d ea aa 0c be dc e8 78 3c
       -0.052311525 0.07437731 -0.13737074 0.015192237
000060 a6 33 b1 bd f7 4b 5d 3d 3c d0 af 3d 23 6a 8b 3d
       -0.08652429 0.054027524 0.085846394 0.06807353
000070 df b7 02 3d 3a dc a9 bd b9 bc 0a bd 82 28 57 bd
       0.031913634 -0.08293958 -0.033871386 -0.052528866
000080 d5 6a 63 38 08 e1 88 bd 13 5b 3b 3d cb a6 5c 3d
       5.4220513e-05 -0.06683546 0.045741152 0.053870004
000090 fd ca 96 bd 72 15 39 bd e8 ad d3 bd 85 16 b2 bd
       -0.07362936 -0.045186467 -0.10335904 -0.086957015
0000a0 bf ec b8 bd d3 9b 84 3d 9b 4e f3 bd 2e 89 a9 3c
       -0.09029531 0.064750336 -0.11880227 0.020695295
0000b0 b1 a5 ad 3d 4e 8b bc bd 75 3d f7 bd f8 b9 8a 3d
       0.08478869 -0.09206258 -0.12072269 0.06773752
0000c0 c7 99 85 3d 80 eb 1f 3d ea 1f b1 3d 12 3a 82 3d
       0.06523471 0.03904295 0.08648665 0.06358732
0000d0 ee da 08 bd dd 49 9c 3d fc e4 9d bd 03 a1 10 3d
       -0.033411913 0.07631276 -0.07709691 0.035309803
0000e0 7e 68 b5 bd bf 01 cb 3b 42 41 8a 3d f0 87 3f 3d
       -0.08857821 0.0061952765 0.06750728 0.0467605
0000f0 4c 68 8b 3d 27 b4 f9 bc 5d d9 eb 3c 70 cd 82 3c
       0.068070024 -0.030481411 0.02879017 0.0159671
000100 ae 42 bf 3d ce b4 63 3e af f7 b6 3d da 88 58 3e
       0.0933889 0.2223694 0.08933961 0.21145955
000110 63 36 20 3e dd 8c 2e 3e 59 e5 64 3d 15 b3 8c 3e
       0.15645747 0.17045923 0.055882785 0.2748038
000120 09 db 80 3d e4 22 57 3e 06 c1 51 3e 3b d4 83 3e
       0.06291778 0.21009403 0.20483789 0.25747856
000130 f4 70 06 3e 1e 1f 38 3e 13 2d d7 bc 67 06 cd 3b
       0.13129026 0.1798062 -0.02626661 0.0062568667
000140 c2 de a2 3d 09 41 e5 3d 8a d2 1a 3e 33 65 c7 3d
       0.07952644 0.11194045 0.15119377 0.09736099
000150 54 72 93 3d 10 cc 6d 3d 26 8b 7a 3e b1 06 56 3e
       0.07199541 0.058055937 0.24467143 0.2090099
000160 07 07 01 3e b1 19 d3 3c c5 72 d2 3c 79 61 99 3e
       0.12600337 0.025769087 0.025689492 0.29957178
000170 3f 97 7b 3d 49 c2 98 3e 47 c6 dd 3e 24 5c 35 be
       0.061423536 0.29835728 0.43315336 -0.1771093
000180 0b 74 4f 3d da e7 4c be 26 c4 88 3e 39 73 74 3e
       0.050647777 -0.2001032 0.2671215 0.23872079
000190 c4 51 9d be a3 fc a7 3b 01 87 c4 3d 82 81 25 3c
       -0.30726445 0.005126552 0.095960625 0.010101678
0001a0 3b ee 2f be ba b0 8b 3c c3 09 64 3e 3f 8a 21 3e
       -0.17180721 0.017052043 0.22269349 0.15775393
0001b0 ae 84 25 3e 9b 61 1c 3d 4c 89 60 3e e6 7e 35 3c
       0.16163895 0.03817902 0.21927375 0.011077618
0001c0 57 ea 09 3e a5 8d 48 3d 44 fd 90 3d df 16 4d 3d
       0.134683 0.048963208 0.070795566 0.05007064
0001d0 08 45 88 3e 46 c8 39 3e ff a1 95 3d 67 a4 67 3e
       0.26615167 0.18142805 0.07306289 0.22621308
0001e0 57 62 6f 3d ad 03 2d 3e 7b 80 9e 3e 93 18 ab 3e
       0.058443394 0.16895933 0.30957398 0.33417186
0001f0 3a 50 a2 be fd bf 16 3e 44 e9 55 3e e0 a7 2d 3d
       -0.31701833 0.14721675 0.20889765 0.042396426
000200 13 38 fd bd 7c a9 3f 3e 92 d5 8d 3c ed c3 87 3d
       -0.12364211 0.18716997 0.017313752 0.06629167
000210 bb a5 8d 3d c1 d5 27 3e 88 dc 37 bd 46 92 63 bb
       0.06916376 0.16390134 -0.04488805 -0.0034724637
000220 63 5e 26 3e a2 51 be 3e d6 bb 43 3e 83 5e 5d 3e
       0.16246943 0.37171656 0.19114622 0.21618085
000230 c0 89 fc bc 8c 24 24 3e e6 42 cf bd 15 5e 00 be
       -0.030827403 0.16029567 -0.10120182 -0.1253589
000240 59 60 ed 3c 66 69 e3 3d 18 a6 14 3e f2 aa 5b 3c
       0.028976606 0.111040875 0.14516485 0.013407456
000250 1d 15 12 3e 9f 79 9b 3d 6d f9 80 bc 5a 79 13 3e
       0.14265867 0.07591557 -0.015743935 0.1440176
000260 3c e5 54 3c d9 2f bb bc 90 34 80 3d 19 b5 03 3e
       0.012994107 -0.022849964 0.062600255 0.12862052
000270 78 2b 7b 3d 9e 30 fb 3d 38 d1 8d 3e f8 3a 05 be
       0.061320752 0.12265132 0.27698684 -0.13010776
000280 4d 81 59 3e f6 2b 7d be 61 2c ee 3d 8e 33 01 bc
       0.2124073 -0.24723801 0.11629558 -0.007885827
000290 d4 e1 ec be c1 5b a3 3c 10 c3 9e bd 28 e4 a6 bd
       -0.46266043 0.019941213 -0.07752049 -0.08148986
0002a0 da f2 71 be 5c 51 2e bd 04 32 33 3e 7f 27 15 3e
       -0.23627797 -0.04255806 0.17499548 0.14565848
0002b0 01 16 35 3e 7d ac e8 bd f8 3e b0 bd 5e 74 9c 3b
       0.17684175 -0.113610245 -0.0860576 0.0047746142
0002c0 bc b0 75 bd ef b4 c7 3d f2 3b 88 bd 14 11 99 3d
       -0.059983 0.09751307 -0.06652059 0.074739605
0002d0 6f 98 eb 3d 77 cf 08 bd a7 b2 c9 3d 3e d9 25 3e
       0.11503684 -0.03340098 0.09848528 0.16196153
0002e0 88 2b ac 3d b1 a3 1d 3e 60 b8 b6 3e a0 f9 d7 3e
       0.084067404 0.15394475 0.35687542 0.42182636
0002f0 b7 fa d8 be 2c 4f 9c 3d 9a ac c2 3d 3f de 19 3e
       -0.4237878 0.07632288 0.095055774 0.15026186
000300 c7 51 8b 3d 2e fd e1 bd 33 7e a1 be 10 f6 cb be
       0.06802707 -0.11034618 -0.31541595 -0.39836168
000310 9d 4b 1c 3e 53 28 9c be b4 f4 e8 3d c5 8e 35 3e
       0.15263219 -0.30499515 0.113747984 0.17730244
000320 52 b3 90 bd 91 3e 15 3d cc 1b 75 bd df 79 c5 3d
       -0.07065453 0.03643662 -0.059840962 0.09642386
000330 b0 53 86 be 5e a0 4d bd 4c a8 38 bf 16 31 27 3e
       -0.26235723 -0.050201766 -0.721318 0.16327319
000340 61 35 c9 be 50 5b 37 3e fc a2 6b be 29 1d d5 3b
       -0.39298537 0.17905927 -0.23011392 0.0065037203
000350 23 59 41 be f4 68 10 3e b5 bc 74 3c 8f e7 e9 3c
       -0.18881659 0.14102536 0.014937569 0.028552799
000360 d8 7d 00 3e f5 8b f6 bd d2 b4 85 3d ee 62 be 3d
       0.12548006 -0.120384134 0.06528629 0.09296213
000370 65 2c 86 3e cc 71 e9 bd 7d 26 64 3c 4b 5d 33 3e
       0.26205745 -0.11398658 0.013925192 0.17516057
000380 a5 cc 60 3d 12 2d 46 be 4f e0 69 3d 1b 68 40 3e
       0.054882664 -0.1935313 0.057098683 0.18789713
000390 ef 1c 8e 3e d8 23 44 be 62 38 aa be 45 49 94 bc
       0.2775645 -0.19154298 -0.33246142 -0.018101344
0003a0 ff 13 1f 3e a1 69 5c 3e fc 4d 61 3d 4c e4 05 bc
       0.15534972 0.21524669 0.055006012 -0.008172106
0003b0 fb e9 0e bc 7e 23 be 3d c1 87 8b be 70 d8 84 3e
       -0.0087227775 0.09284113 -0.2725201 0.2594638
0003c0 3d c5 e8 be 2a ce 15 be eb 6b 9a be c3 35 93 3d
       -0.4546298 -0.14629427 -0.3016046 0.071879886
0003d0 c5 c2 44 be 74 1e 66 3e 86 72 de be c8 82 78 3e
       -0.19214924 0.22472554 -0.4344675 0.24268639
0003e0 5d 10 fe bb 5d de ed 3c ed 04 d4 bd 57 55 b3 bd
       -0.0077534155 0.029036695 -0.10352502 -0.08756512
0003f0 ed f0 8f 3e 3a f8 91 3c 92 53 3d be da 8a 37 be
       0.281135 0.017818559 -0.18488911 -0.17924061

layer2.bias f4 [32]
000000 81 2e b1 3d 5b 7a 0f 3e 68 98 80 3e d1 3d 99 bd
       0.08651448 0.14011519 0.25116277 -0.07482494
000010 19 2f 87 3e 16 24 61 3e b3 41 e5 3d 98 bc e3 3d
       0.2640312 0.21986422 0.11194172 0.11119956
000020 bc 51 39 3d d6 1e 6b 3e 1a f0 39 3e 0f 5c c2 3d
       0.045243964 0.22960982 0.18157998 0.09490215
000030 a4 90 94 3e e3 6e 77 3e e2 f2 c7 bd a6 27 88 3e
       0.29016602 0.24163394 -0.09763123 0.2659275
000040 cb ae 88 3e 9f 31 78 3e 73 0f ad 3d 13 cc a8 3d
       0.26695856 0.24237679 0.08450212 0.08242049
000050 73 b1 ec 3d 85 4d 3d 3e 72 d6 01 3e 07 6c 59 3d
       0.11557283 0.18486603 0.1267946 0.05308154
000060 d6 6d 90 3e 09 b4 d1 3d 63 a8 3c 3e 9f 98 05 3e
       0.28208798 0.10239417 0.1842361 0.13046502
000070 11 0b 1c bd d1 6e 64 3e 44 bf 01 be 55 a3 c2 3d
       -0.03809649 0.22307898 -0.12670618 0.09503809

layer3.weight f4 [32, 32]
000000 f7 5c 9c 3d 36 6b 0c be a7 f3 29 be 66 71 d1 bd
       0.07634919 -0.13712773 -0.16596852 -0.10226707
000010 67 05 18 bd 40 ec b5 bd 68 8e 03 3e 3b 52 df bb
       -0.037114527 -0.08882952 0.12847292 -0.0068152226
000020 94 83 ca 3c 32 bc a6 bc 55 e8 ca bd 49 26 85 3d
       0.024720944 -0.02035341 -0.09907595 0.06501443
000030 a1 f9 4a bd f1 95 1a be 00 9f 13 3b e6 6a af 3d
       -0.04955447 -0.1509626 0.0022525191 0.08565311
000040 e4 0f 18 be 49 82 c5 bd 7b 21 d8 bd 92 ab 04 3e
       -0.14849812 -0.096439905 -0.10553261 0.12956074
000050 05 4c 04 be b4 86 91 bc cc c4 b2 3c fe 48 6a bd
       -0.12919624 -0.017764427 0.021822356 -0.057198517
000060 a0 f4 d7 3d 67 52 90 bd 64 db 11 3e aa 2a 15 bd
       0.105447054 -0.07046967 0.14243847 -0.03641764
000070 9d c9 a4 bd 29 50 41 bd 50 02 3e 3d 73 a8 2b 3e
       -0.08046267 -0.047195587 0.046388924 0.16763477
000080 66 19 af bb 64 9b ec 3d d3 0b 86 3e 44 f2 a6 be
       -0.005343604 0.11553076 0.26180896 -0.3260671
000090 66 ee 3e 3e 2b 52 ee 3d 19 54 a8 3d d5 ca 83 3d
       0.1864563 0.11636766 0.08219165 0.064351715
0000a0 30 a0 54 3d 93 6d 95 3e 05 9f 1c 3e c2 63 52 3e
       0.05191058 0.2918516 0.15295036 0.20545867
0000b0 4c d7 49 3e 05 66 2c 3d 90 86 ed be 2d ac 22 3e
       0.19711035 0.04208948 -0.46391726 0.15885992
0000c0 f7 80 85 3e a5 ad 8f 3e cc bf 74 3e 36 0e 87 3e
       0.26074955 0.28062168 0.2390129 0.2637803
0000d0 84 a9 9d 3d 46 07 63 3e 42 bb ba be bb f8 42 3e
       0.07698348 0.22170743 -0.3647099 0.19040196
0000e0 cb b4 91 3e 3b 6a 64 3e 85 a3 97 3d cb 48 88 3e
       0.28458247 0.22306149 0.07404236 0.26618037
0000f0 aa 90 b8 bc b8 51 0a 3e 6b 28 e5 bd bc ee 8b 3d
       -0.022529919 0.13507736 -0.1118935 0.06832644
000100 23 8e 3e 3c 1b e2 04 be 48 45 0e 3e 8c a4 d4 bd
       0.011630568 -0.12976877 0.13893616 -0.10382947
000110 11 9c 45 3d 24 b1 2e 3d d0 e0 17 be 66 ca 14 3e
       0.04824454 0.042649403 -0.14831853 0.14530334
000120 93 54 77 bd 4a 3c 68 3d fb 86 21 be 61 f2 26 be
       -0.06038339 0.05669812 -0.15774147 -0.16303398
000130 cb 16 54 3d be 98 ea 3d 98 03 5c 3d 49 73 9a 3c
       0.05177955 0.114549145 0.053714365 0.0188538
000140 b4 47 fb bd e1 bd 08 bd cb dd 49 3d 48 af eb 3d
       -0.12269536 -0.033384208 0.049283784 0.115080416
000150 28 b0 87 bd c9 5b cc 3d eb b1 ca bd 25 82 a5 bd
       -0.06625396 0.09978444 -0.098972164 -0.08081464
000160 7d 1a fd 3d 20 b5 a8 bd ce dc de bd 2d 3a 9d 3d
       0.12358568 -0.08237672 -0.10881959 0.07677112
000170 50 6f 96 bd 7d 91 97 bd 40 d4 34 bd e3 de 0b 3e
       -0.0734545 -0.074007966 -0.04414773 0.13659243
000180 4d 29 17 3e 44 2c f9 bd 3f 60 1c be 94 f4 2e be
       0.14761849 -0.12166646 -0.1527109 -0.17085487
000190 b3 3b 2e be 2e 93 dc 3d 6b 40 1b be 7d 1c 07 3e
       -0.17014961 0.1077026 -0.15161292 0.13194461
0001a0 fa 7e f0 3d a0 b8 ff bb b4 91 07 bd b2 82 cc bd
       0.11742969 -0.0078039914 -0.033097938 -0.09985866
0001b0 82 60 aa 3d 92 77 c5 3d ea 56 a8 3d d9 9a e3 bd
       0.08319189 0.09641947 0.082197025 -0.11113519
0001c0 4c 6a 89 3d 24 d5 94 3d 7e 94 f1 3d 0a 3f de 3d
       0.06709728 0.07267216 0.11795901 0.108518675
0001d0 50 8f 44 3d 00 73 67 ba 13 5e 31 3e f6 ca b5 bd
       0.047988236 -0.0008829087 0.17321043 -0.08876602
0001e0 d0 4e e7 3c 56 17 26 be 3d c9 34 be a7 91 f0 bd
       0.028235823 -0.1621984 -0.17654891 -0.11746531
0001f0 33 a4 28 3e b0 08 1d 3c b6 50 5d bd 9a a3 75 bd
       0.16468887 0.009584591 -0.05403205 -0.059970476
000200 30 a5 67 39 b9 bb 06 3e b2 c5 62 3d 05 a1 66 be
       0.00022091414 0.13157548 0.05536432 -0.22522362
000210 5b 4b b5 3d d1 40 2d 3e e2 81 06 3e 37 e3 03 3e
       0.088522635 0.16919257 0.13135484 0.12879644
000220 42 9d 40 3e e5 f0 f7 bb 54 3f ad 3e 28 14 83 bc
       0.18809989 -0.0075665587 0.33837378 -0.016000822
000230 54 d9 90 3e b0 53 a5 3e f2 78 e6 be 57 3a f8 3d
       0.28290808 0.3229041 -0.4501415 0.121205024
000240 d7 16 53 3e c4 e1 82 3e fe a0 9d 3e 51 f6 9a 3d
       0.20614181 0.2556287 0.3078689 0.075665124
000250 f4 2c 9d 3e 7c 74 35 3e 00 19 01 bf 85 90 bf 3e
       0.3069836 0.17720217 -0.5042877 0.37414947
000260 1c 91 9f 3e 02 05 27 3d 28 db 8c 3d fd b8 b8 3d
       0.31165397 0.04077626 0.06877738 0.09019659
000270 f2 54 a4 bd 5d 58 5d 3d 96 e0 a5 3d 93 44 68 3d
       -0.080240145 0.054039348 0.08099477 0.056706022
000280 9c b3 90 bd 19 01 63 3e 11 62 6c 3e 98 3c 80 be
       -0.07065508 0.22168387 0.23084284 -0.2504623
000290 e3 ee 07 3e 01 5c 75 3e 8a 82 fb 3d 1e e4 32 3e
       0.13274722 0.23960878 0.12280758 0.17469832
0002a0 23 50 26 3e cf b6 8e 3e 08 4e 81 3e 25 64 86 3e
       0.16241507 0.27873847 0.25254846 0.2624828
0002b0 2e 55 34 3d 78 49 86 3e 2f ed ae be e9 1b ea 3d
       0.044026546 0.26227927 -0.34165332 0.11431105
0002c0 4e 96 fe 3b b1 19 9c 3e 0a c8 4f 3e 8f a4 24 3d
       0.0077693826 0.3048835 0.20291153 0.040195998
0002d0 93 da 05 3d e6 c1 4e 3e a3 d8 f2 be 83 bb 9f 3e
       0.03267915 0.20191154 -0.47430906 0.31197748
0002e0 13 62 3f 3e bb f9 69 bc c7 a8 06 3e c1 50 90 3e
       0.18689756 -0.014280732 0.13150321 0.2818661
0002f0 4b b2 f1 3d 07 74 9e 3e bb f3 ec bc 41 33 94 3e
       0.11801585 0.30947897 -0.028924813 0.28945354
000300 d7 3e 11 bd c5 34 45 3e 56 13 29 3e 0a ab e5 be
       -0.03546032 0.19258411 0.16511282 -0.44857055
000310 d4 05 be 3d 03 df 01 bd d3 9b 87 bc e6 ac 13 3d
       0.092784554 -0.03170682 -0.016553795 0.03605356
000320 4d 02 eb 3d 3a 55 4f 3e 2f 2e 95 3e 27 2b 59 3d
       0.11475048 0.20247355 0.29136798 0.05301967
000330 04 be 78 3e e3 44 9e 3e 3f f8 fb be 20 78 88 3e
       0.24291235 0.3091193 -0.49212834 0.26654148
000340 47 89 8e 3e d3 bb f6 3d 01 57 71 3d 9a 49 59 3e
       0.2783911 0.120475434 0.058920864 0.21219483
000350 34 93 89 3e 41 e9 59 3e 8f 5e c9 be c2 ca 8e 3e
       0.2687012 0.21280386 -0.39329955 0.27889067
000360 c9 1b 9d 3d 05 63 5c 3e 4a 28 10 3e d1 23 e5 3c
       0.07671315 0.21522148 0.14077869 0.02797118
000370 cd 9f fd bd 31 c1 2c 3e 8e 4f 99 3c 88 8f a6 3e
       -0.12383995 0.16870572 0.018714692 0.3253138
000380 e0 94 fe 3c f4 44 a9 3e a7 2c 07 3e 7c 8e cf be
       0.031076849 0.3306042 0.13200627 -0.40538394
000390 d0 76 13 3e 61 56 dd 3d ff 5d 02 3e a0 4f 1b bd
       0.14400792 0.10807491 0.12731169 -0.037917733
0003a0 bd 7a a3 3e 96 21 6b 3e b3 4d 44 3e f9 5c 1a 3e
       0.3192958 0.22962031 0.19170265 0.15074529
0003b0 80 72 ab 3e 78 f8 86 3e 20 d6 ca be 95 9e 99 bc
       0.33485794 0.26361442 -0.3961649 -0.018752376
0003c0 2c 16 dd bc fc 4e ae 3d 66 d9 3a 3e 75 86 40 3e
       -0.026988111 0.08511159 0.18246993 0.18801291
0003d0 71 36 80 3e e6 08 6b 3e 0c 22 f6 be d1 46 b6 3e
       0.25041535 0.22952613 -0.4807285 0.35600904
0003e0 22 ec 6a 3e 36 89 4d 3e 5b 25 98 3e de a3 5d 3c
       0.2294164 0.20071873 0.29716 0.0135278385
0003f0 f3 0e 2a 3d 0c 73 02 3e 8d d7 20 3e 2b ca e8 3c
       0.041518163 0.127392 0.15707226 0.028416714

layer3.bias f4 [32]
000000 f6 47 98 bc 0e 66 34 3e 37 e4 8d 3c 7e 42 f1 bd
       -0.018589001 0.17617056 0.017320735 -0.117802605
000010 d0 81 84 3d 95 c5 54 3e f3 64 cd bc 75 4f 7b 3e
       0.06470072 0.20778497 -0.02507255 0.24542029
000020 74 fa 59 3d e9 14 c7 bc 40 18 a3 3e 67 cc 85 3e
       0.053217366 -0.024301963 0.3185444 0.2613251
000030 39 4d 15 3e 47 8a 1b be 8c cd 54 bc cf a1 a3 3d
       0.1458024 -0.15189467 -0.012988459 0.07989847
000040 95 94 95 3d 88 d1 29 3e d4 fa 2a 3d a8 24 94 bd
       0.073037304 0.16583836 0.041743115 -0.07233554
000050 1d 4e f3 3d d0 0c a9 3d d2 7d c0 bc 36 42 87 3e
       0.11880133 0.08254397 -0.023497496 0.26417702
000060 96 e6 fd 3d a7 9e b4 3d 15 1b 25 be 49 2b 6b 3d
       0.123974964 0.08819323 -0.16123612 0.057414327
000070 df a1 f3 3d fb ea 19 3d 6b e5 26 3e 6a 64 25 be
       0.11896109 0.03757761 0.16298454 -0.16151586

layer4.weight f4 [24, 32]
000000 04 8d f3 3d 50 42 5a bd 64 ad 5f 3d 9e 4f c0 3d
       0.11892131 -0.053285897 0.054608718 0.09390186
000010 eb d6 2f bb 8d c4 f5 3d 92 6e 00 be 73 06 aa 3d
       -0.0026830982 0.1200038 -0.12542179 0.08302011
000020 d8 f2 b2 bc 1a 32 17 be 7d 40 01 be a5 e6 c8 bc
       -0.021844313 -0.14765206 -0.12622257 -0.024524042
000030 8b e6 0c 3e 14 18 15 be 7c 64 1a 3e f7 f8 30 be
       0.1375982 -0.14559966 0.15077394 -0.17282473
000040 62 6e ab bd e3 57 a7 bd 40 06 2e 3e db 0c 05 3e
       -0.08370663 -0.0817106 0.16994572 0.12993185
000050 2c a3 55 bd 68 8e a2 bd 1d b6 29 3e 86 6c ab 3c
       -0.052157566 -0.07937318 0.16573377 0.020925771
000060 44 ea b6 bd 0b 4a a1 bd d3 e2 9f 3d cf d7 d8 bc
       -0.08931401 -0.07875451 0.07806935 -0.026470093
000070 81 a8 aa 3d 6c 71 c9 bd 3b 9a 93 3d eb 26 06 3e
       0.08332921 -0.09836087 0.072071515 0.13100784
000080 86 59 12 be 2a 52 da 3c 9d 08 17 be a8 8e 9e 3c
       -0.14291963 0.026650507 -0.1474938 0.019355133
000090 1b 5d 15 be ee 17 14 be 65 fb 10 be 93 7c 87 bd
       -0.14586298 -0.14462253 -0.141584 -0.066155575
0000a0 14 0f 48 3d 0e c1 d7 3d d7 0c 91 3d bc ca a5 bd
       0.048842505 0.10534869 0.07082527 -0.08095309
0000b0 2d 58 de bd 96 de 98 3d dc f4 34 3d 75 1e 01 bd
       -0.10856662 0.0746433 0.04417883 -0.031523187
0000c0 a4 c7 1e be a0 ba 14 3e 02 db db bd 25 24 2e be
       -0.15505844 0.14524317 -0.10735132 -0.17005976
0000d0 9d 24 9d bc ef bf 2d bd 63 6c 13 be 82 bd 58 3b
       -0.019182498 -0.04241937 -0.14396815 0.003307194
0000e0 01 e4 1c 3e fe 29 cb 3d da d9 bf 3d 00 d3 03 bc
       0.15321352 0.09920119 0.09367724 -0.008045912
0000f0 22 b6 01 be 98 1e 88 bd 41 0b 2c bd c0 e2 33 3b
       -0.12667134 -0.0664646 -0.04200292 0.0027448386
000100 b4 0a 14 be 0b e5 08 3e 72 87 e8 3d bf 8a b5 bd
       -0.14457208 0.13368623 0.11353959 -0.08864354
000110 e6 1d cb 3d 80 f5 07 3b fc 21 41 3d 1a 59 c7 3d
       0.09917812 0.0020745695 0.04715155 0.09733792
000120 ec 58 06 3d c7 78 15 3e 91 04 c1 bd 18 54 16 3d
       0.032799646 0.14596854 -0.09424699 0.03670129
000130 54 e8 05 be f2 51 9b 3d 20 50 52 bd d9 d0 0b 3e
       -0.13076907 0.07583989 -0.051345944 0.13653888
000140 50 9a 8d bc 25 14 34 be 40 4d 70 3c 04 2d 13 bd
       -0.017285496 -0.1758581 0.014666855 -0.035931602
000150 45 e2 a5 bd f6 10 58 bd 56 11 33 be d8 db 9c bd
       -0.08099798 -0.05275055 -0.17487082 -0.07659119
000160 80 04 eb bb ec 62 1d be c6 0f 0d be 70 72 c6 bd
       -0.0071721673 -0.15369767 -0.13775548 -0.09689796
000170 d8 01 bc 3c ca e2 85 bd c5 14 b3 bd b8 a5 31 bd
       0.022950098 -0.06537397 -0.08744196 -0.043370932
000180 3d 21 34 3e a8 45 38 bd 0f 6f e8 bd 49 7b 0f be
       0.17590804 -0.044988304 -0.11349308 -0.14011873
000190 70 d0 ab 3c 89 dc cb bd 22 ba b0 3d d6 88 93 bd
       0.020973414 -0.09954173 0.08629252 -0.07203834
0001a0 60 eb fc 3c 76 99 30 be 60 9c 66 bc f6 d8 c0 3d
       0.030873954 -0.1724604 -0.014075369 0.09416382
0001b0 94 db 62 3d 60 30 06 bd 62 fc e6 3d d0 43 00 3d
       0.055385187 -0.032760978 0.11278607 0.03131467
0001c0 8a 04 ee 3d 67 f8 d1 bd 8d 28 18 be 50 fd 93 3c
       0.116219595 -0.10252457 -0.14859219 0.018065125
0001d0 87 92 0e 3e fe c5 99 3d da 31 e8 3d 13 1e 29 be
       0.13923083 0.07508467 0.113376334 -0.16515379
0001e0 20 7d 27 3d c2 35 aa 3d 13 08 32 3e 3c c4 3e bd
       0.040890813 0.08311035 0.17385893 -0.046573862
0001f0 1d ce 16 be b0 50 f2 bd 30 fd 49 bd 15 0b 30 3e
       -0.14727063 -0.11831796 -0.049313724 0.17191727
000200 6f b8 b7 bd 27 0c bf 3d 06 ef dd bd 9c 5c 0e 3d
       -0.08970725 0.0932849 -0.10836606 0.034756288
000210 a4 b4 ae 3d c0 02 1c 3e 0a 38 0d bb ac 29 12 3e
       0.08530548 0.15235424 -0.0021548294 0.14273709
000220 cc 6b 18 be fc 15 bf 3d 47 ca 86 3e 22 5c 7a 3d
       -0.14884871 0.09330365 0.263262 0.06112302
000230 36 f8 8e 3e 60 71 92 bb 84 2e 9c be 5e 98 3b bd
       0.27923745 -0.0044690818 -0.3050424 -0.045799606
000240 4e af ce 3d a1 85 02 3e 66 9e fc 3c 6d ab a5 bd
       0.100920305 0.12746288 0.030837249 -0.080893375
000250 ba b0 60 3e 47 13 16 be c2 89 20 3e ba b9 d2 bc
       0.21942416 -0.14655791 0.1567755 -0.025723327
000260 ea 90 20 3e d4 d3 82 3e 9f c1 90 3d 40 23 1c 3d
       0.1568028 0.25552237 0.0706818 0.038119555
000270 ed 21 c8 3d fc fb b9 3d 61 28 51 3e b7 cf 34 3e
       0.09772096 0.09081265 0.2042556 0.17657362
000280 49 75 d8 3d 99 0c 88 3e 38 d6 dd bb aa ae f6 bd
       0.10569245 0.2657211 -0.0067699216 -0.12045033
000290 e9 8b a5 3d d2 55 8d 3d 61 cb 22 3e bd 75 58 3e
       0.08083326 0.069011346 0.15897895 0.21138664
0002a0 1d d3 20 3e 6c 05 d2 3d b6 b3 81 3d 88 7a 16 3e
       0.15705533 0.102549404 0.06333105 0.1469518
0002b0 fb 2e ad 3d 20 f2 34 3d 37 81 a1 be af 53 08 3c
       0.084562264 0.04417622 -0.31543896 0.008320733
0002c0 fe 44 0d be 24 a8 1e 3e 3a 31 09 bc a0 81 a1 3c
       -0.1379585 0.15493828 -0.008373553 0.01971513
0002d0 4c 1a 5b 3e 9c a0 32 3e 3a 0a 9f bc 34 06 35 3e
       0.2139675 0.1744408 -0.019414056 0.17678148
0002e0 b6 6e 1a be e1 08 8c 3e 93 0a 2e 3e ad c7 48 3e
       -0.15081295 0.27350524 0.16996221 0.1960742
0002f0 d3 27 bf bb cb b3 ee 3d 7b 5d 06 3d f3 33 34 be
       -0.005833605 0.116553865 0.032803994 -0.17597942
000300 51 28 27 be 21 de 07 be a5 be ac bd 96 63 b9 3d
       -0.16323973 -0.13268329 -0.084348 0.09052198
000310 bd 8f 33 be d9 c1 4b ba 2a 74 81 3d 6c 89 17 3e
       -0.175353 -0.0007772721 0.06320985 0.14798516
000320 0c ae a6 bd 5a b1 d7 3d d4 35 78 bd 53 a4 08 3e
       -0.081386656 0.10531874 -0.06059821 0.13343935
000330 87 70 96 bd 6e 3d e4 3d 1a 28 f2 3d 96 8b 9f 3d
       -0.07345682 0.11144529 0.11824055 0.07790296
000340 98 0f 14 bd f8 c7 d7 3c 4a 12 c4 3d 38 2e e5 bd
       -0.036147684 0.02634047 0.09573801 -0.11190456
000350 73 7b 49 bd a7 f9 10 3e 03 eb c6 bd 74 42 ec 3d
       -0.049189996 0.14157735 -0.09712794 0.115361124
000360 f6 ce 1a be 32 18 1f 3c 16 fd 97 3d 8b f6 1d bb
       -0.15118012 0.009710358 0.07421319 -0.002410325
000370 09 9a b6 3d 90 87 7d 3c a9 35 2b bd d2 20 94 bd
       0.089160986 0.015474215 -0.04179922 -0.072328225
000380 a3 f5 90 bd 05 39 8f 3d f8 88 00 be 44 18 1e 3d
       -0.070781015 0.069932975 -0.1255225 0.03859736
000390 a3 78 e1 bd b8 9d 43 bd c4 02 02 bc df 4f ef 3d
       -0.11009338 -0.047757834 -0.00793523 0.11685156
0003a0 4c cc 56 3d fc 37 20 be ca 1f e5 3c a7 1f d3 bd
       0.052440926 -0.15646356 0.02796926 -0.103087716
0003b0 e2 b8 b5 bd 37 74 d3 bd 8e 5e 82 3d f7 c1 8c 3c
       -0.08873154 -0.103249006 0.06365691 0.017182333
0003c0 f7 50 a0 bd 3c ce 21 be 0a af 9d bd 7c a9 08 bd
       -0.07827943 -0.15801328 -0.07699402 -0.033364758
0003d0 09 fb dd bd 6c b5 e8 3d ca 49 28 3d b8 84 db 3d
       -0.10838897 0.113627285 0.041085996 0.107186735
0003e0 e5 c9 1b 3e e0 66 dc bd 67 98 9e 3d 6f ac 05 3e
       0.15213735 -0.10761809 0.07743912 0.1305406
0003f0 62 68 8e 3d d4 98 8b 3d 13 e9 09 bd dd 97 2a 3e
       0.06953503 0.06816259 -0.033669543 0.16659494

layer4.bias f4 [24]
000000 d9 7f fb bd 8e 67 1f 3d 5e 31 5b bd 80 f2 df bb
       -0.122802444 0.038917117 -0.053513877 -0.006834328
000010 4a ae 89 3c 2b de 10 3e 5e 03 03 be 1f c4 05 3e
       0.01680674 0.1414725 -0.12794253 0.13063096
000020 4b fb e4 bd 9a 18 ef 3d c2 12 d0 bd a1 4d 39 3e
       -0.11180743 0.11674614 -0.10159828 0.1809602
000030 34 62 0d 3e b7 02 d5 3d 88 b9 5c 3e 88 4d 85 3e
       0.13806993 0.104009084 0.2155515 0.26035714
000040 c8 a0 30 be 70 35 79 3e 11 8c 35 3e 7f ac 62 3e
       -0.17248833 0.24336791 0.17729212 0.22136115
000050 e2 1d 85 bd 80 c1 fd 3c 21 1c 08 be 38 d7 ad 3d
       -0.0649984 0.030976057 -0.1329198 0.08488315

layer5.weight f4 [24, 24]
000000 d0 39 04 be fa 4c 0a 3e 97 26 50 be c4 7e 2d bd
       -0.12912679 0.13505927 -0.20327221 -0.04235722
000010 56 89 11 3e d6 cb 9a bd 2c 64 23 be 84 aa c3 3d
       0.14212546 -0.0755841 -0.15956181 0.09554008
000020 d0 89 05 3c 50 db 6f bc c0 94 68 bd ba da 15 3e
       0.008150533 -0.0146396905 -0.056782484 0.14634219
000030 40 a9 ad 3d 84 6f 33 3d b8 eb 40 bd 27 e7 44 be
       0.084795475 0.04380752 -0.0470998 -0.19228803
000040 38 7f 39 3e c8 3f db 3d 30 36 07 be 80 af 5b bc
       0.18114936 0.10705525 -0.13204265 -0.013408542
000050 ac 4d dc 3d 0c fe 72 bd 62 0a 4f 3e 0c 6d 64 bd
       0.10757002 -0.05932431 0.20218804 -0.055768058
000060 c2 ec 50 3e 0c f6 a6 3d f5 5a c6 bd c0 b4 ce 3c
       0.20402816 0.081523985 -0.096853174 0.025232673
000070 80 10 0a bd 7a 0d 0b be 48 cf 99 bc c0 2b 02 3c
       -0.033707142 -0.1357936 -0.018775597 0.007945001
000080 b1 4c f9 bd 88 37 7b bd 6b 50 24 be f0 9d 09 bd
       -0.12172831 -0.061332256 -0.16046302 -0.033597887
000090 9a 64 44 be 79 8b 13 be 5e fb 12 be 60 39 38 3c
       -0.19179001 -0.14408673 -0.14353701 0.011244148
0000a0 3b fa c9 bd 74 f9 d5 3d 23 cf 4b be 10 99 1d be
       -0.09862181 0.1044797 -0.19903235 -0.1539042
0000b0 48 56 91 bc e0 21 3c 3c c0 11 8c bd 38 95 ec bd
       -0.017741337 0.011482686 -0.06839323 -0.11551899
0000c0 9f 8e 05 be 7b 5d 4d 3a b8 92 17 be 1a 8c 33 be
       -0.13042687 0.0007834059 -0.14802063 -0.17533913
0000d0 93 14 99 3d ed 56 0d 3d d1 4d f8 3c 70 90 2b 3e
       0.07474627 0.034506727 0.030310543 0.16754317
0000e0 e4 e3 a2 3d 20 62 87 3e ec 9a 48 3e 58 ec 09 3e
       0.07953623 0.2644205 0.19590348 0.13469064
0000f0 89 85 a9 3d 92 7b 3f 3e 57 81 62 3e 62 ee 53 3d
       0.08277423 0.18699482 0.22119652 0.05174101
000100 70 8f 57 3c 2f a6 0e 3d 33 50 96 3e 8f 0a d8 bc
       0.013156757 0.034826454 0.29358062 -0.026372222
000110 8a 3b fe 3d 84 ba 01 3d bc 0c 62 bd 68 e5 b1 bd
       0.124137 0.031672016 -0.055187926 -0.08686334
000120 18 af 13 3e 18 b0 6d 3d 30 d4 38 bd 94 13 48 bd
       0.14422262 0.058029264 -0.045124233 -0.048846796
000130 05 f0 22 ba ba 05 84 bd 73 27 f4 bc 8b 78 dd bd
       -0.0006215575 -0.06446405 -0.029803967 -0.10814007
000140 20 1d 15 3c 2b 61 33 be 00 bc 77 bd a6 cd 0c bd
       0.009101182 -0.17517535 -0.060482025 -0.03437581
000150 c7 d4 e7 bd 23 83 5a 3d ff 4f e3 3c a5 d1 d7 3d
       -0.11319881 0.053347718 0.027748106 0.105380334
000160 04 5e f5 bd bf dd 99 3d 01 10 28 3e fc 40 4d be
       -0.11980823 0.07512998 0.16412355 -0.20044321
000170 b2 27 55 3c 34 82 da 3d 80 9e 0b 3e 20 f2 f0 3d
       0.013009952 0.106693655 0.13634682 0.11764932
000180 97 56 85 3d b1 97 fa bd 44 d5 f6 3d 2a b2 28 be
       0.06510656 -0.12235964 0.12052396 -0.16474214
000190 0f ca 2f 3e 87 92 34 3e 96 7e 27 3e 8d 18 38 bd
       0.17166923 0.17634021 0.16356882 -0.04494529
0001a0 08 68 b0 bd 01 d9 75 3e 43 c0 09 be 10 83 8d 3e
       -0.086135924 0.24008562 -0.13452248 0.27639055
0001b0 b2 c7 89 3e f2 8d 1e 3e eb 9e 89 3e 16 74 90 3e
       0.26910168 0.15483835 0.26879057 0.28213567
0001c0 00 f6 e0 ba 38 4b b3 3e 07 dd 16 3c 01 0f 91 3e
       -0.0017163157 0.35018325 0.00920797 0.2833176
0001d0 13 b5 12 bd c6 08 15 be 20 a6 df 3b 2f d1 11 be
       -0.035817217 -0.14554128 0.0068252236 -0.14239953
0001e0 00 72 e2 3d e8 d1 63 3d 68 9a c3 3c 40 05 b0 3b
       0.110569 0.055620104 0.023877338 0.0053717196
0001f0 4c 20 09 be ba 29 1c 3e a2 62 13 be 2d 7a d8 bd
       -0.13391227 0.15250292 -0.14393094 -0.10570178
000200 54 52 29 3e 14 2b 90 bd 24 df 1f bd 57 26 3c be
       0.16535312 -0.070394665 -0.039031163 -0.18374
000210 2e 72 12 be 54 db 23 bd 63 08 07 be 30 a8 9b bc
       -0.14301369 -0.04000409 -0.13186793 -0.019001096
000220 2c a9 48 3e 9c 11 07 bd f0 06 1a 3d 78 d3 a7 3d
       0.19595784 -0.032975778 0.037604272 0.08194631
000230 a8 ad 37 3e e0 76 ae bc 62 9e 32 be e7 f5 36 be
       0.17937338 -0.021296918 -0.17443231 -0.17867242
000240 20 c8 21 be b8 52 85 3d a8 75 00 3e 5c 01 fb 3d
       -0.15798998 0.06509918 0.12544882 0.12256119
000250 2a 40 a2 bd 00 c8 27 bc 30 5b 3f 3d bc 88 92 bd
       -0.079223946 -0.010240555 0.046717823 -0.07154986
000260 08 62 a9 3c 70 50 51 3d 43 e3 21 be a0 24 9e 3d
       0.020676628 0.0511021 -0.1580935 0.077218294
000270 08 fc ec bc c2 51 8a bd 5c 58 d7 bd 3d 58 00 be
       -0.028928772 -0.06753875 -0.105149 -0.1253366
000280 d2 6a 2c be 48 fe d0 3d f0 8d 4e bc 1c f3 17 3e
       -0.16837624 0.1020475 -0.012607083 0.14838833
000290 e3 76 2c be 7e 67 0c be 48 66 66 3d 57 fb 02 be
       -0.16842227 -0.13711354 0.056249887 -0.12791191
0002a0 67 a3 0b 3e c9 12 09 3e c4 2d 4e be f8 2f 0e 3e
       0.13636552 0.13386072 -0.20134646 0.13885486
0002b0 39 3f 1a be 96 ab 05 3e bc a5 15 3d 17 46 82 3d
       -0.1506318 0.13053736 0.03653501 0.06361025
0002c0 a4 36 07 3d 68 ed 09 3e d6 be 3f 3c 78 ae 41 be
       0.033011094 0.1346947 0.011703214 -0.18914211
0002d0 a4 ca 43 3e 97 2f 4e bb 04 e6 c6 bd a1 20 89 3c
       0.1912027 -0.0031461471 -0.09711841 0.016739191
0002e0 d2 da 17 be ec c9 83 39 6b 33 cc bb 46 c9 82 bd
       -0.14829567 0.0002513671 -0.0062317154 -0.06386046
0002f0 4b 3a 24 3e 94 3e 79 bd 40 75 36 bc bf ca 83 3d
       0.16037862 -0.060850695 -0.011136353 0.06435155
000300 28 cf dc 3d f4 cb b8 bd 28 fc 2f 3e 30 ec ae 3c
       0.107816994 -0.09023276 0.17186034 0.021352857
000310 f6 62 59 be 6b cd 88 3d d4 71 00 be 2c d5 ce bc
       -0.21229157 0.06679805 -0.12543422 -0.025248133
000320 80 3d c4 3d 04 e2 56 bd 49 a7 4d 3a c8 88 23 3b
       0.09582043 -0.05246164 0.0007845057 0.0024953354
000330 e4 ec 31 3e 42 df 10 be 95 a3 12 3b 1c 88 1a be
       0.17375523 -0.14147666 0.0022375335 -0.15090984
000340 88 d4 af 3c 60 22 08 be 50 17 cf bd 36 e1 fd 3d
       0.021463647 -0.13294363 -0.101118684 0.12396471
000350 f8 18 22 3e 88 28 18 3e 58 cc 5f bd d1 01 be 3c
       0.15829837 0.14859211 -0.054638237 0.023194226
000360 10 48 14 be 44 8a f0 3d 8e c7 3a 3e 6c 44 92 bd
       -0.14480615 0.11745122 0.18240187 -0.07141957
000370 97 64 30 3e 18 03 0c 3e 6c 40 53 be b7 f2 ca bd
       0.17225872 0.13673055 -0.20630044 -0.099095754
000380 b6 93 29 be f1 83 81 3e 31 89 00 be 34 73 56 3e
       -0.16560254 0.25295976 -0.12552334 0.20942384
000390 75 5d 50 ba 03 e5 1b 3d ac 3e aa 3d 1e 38 21 3e
       -0.00079484965 0.0380602 0.08312735 0.15744063
0003a0 c4 26 4a 3e e8 3b 65 bc 89 c8 8e 3e df cf b3 3e
       0.1974135 -0.013991334 0.2788737 0.3511953
0003b0 08 10 9b bd c4 31 11 be b8 28 94 3d 48 1a 05 be
       -0.07571417 -0.1417914 0.07234329 -0.12998307
0003c0 bd c0 9d bd e0 55 4c 3d d2 11 93 bd 48 26 1e 3e
       -0.077027775 0.049886584 -0.07181133 0.1544429
0003d0 ee 47 91 3e 5a f0 49 3b 5f a1 3f 3e 81 34 c5 3c
       0.2837519 0.0030813427 0.18713902 0.024072887
0003e0 85 f9 e7 bd d5 c6 4e bd 54 90 3e 3e ad 40 9d 3d
       -0.11326889 -0.05048259 0.18609744 0.076783516
0003f0 24 2d 78 bc f6 80 dc 3d ea 17 15 3d 32 11 8c bd
       -0.015147481 0.10766785 0.03639976 -0.06839217

layer5.bias f4 [24]
000000 e7 c2 df bd ec 43 8d bd b6 0b a0 3e 48 e0 4d be
       -0.109258465 -0.06897721 0.31258935 -0.20105088
000010 28 19 e8 3d d3 31 2b be 14 79 61 bd a1 bf 86 3d
       0.11332923 -0.16718225 -0.05504711 0.06579519
000020 cc a2 0a 3e af 9d 5e 3e 84 25 80 bd 0f 08 93 3d
       0.13538665 0.21739839 -0.062571555 0.071792714
000030 90 38 3b 3d 11 bd ca bd 51 14 21 3e 43 8a 31 3e
       0.04570824 -0.09899343 0.15730406 0.17337899
000040 70 89 29 be d2 e5 09 bd 51 de 89 bc 94 ba 6e 3e
       -0.16556334 -0.03366644 -0.016829642 0.23313361
000050 63 73 0a bd 26 f5 3d 3e 18 ff 3c bd cc 4a f3 bd
       -0.033801448 0.18550548 -0.046141714 -0.11879501

layer6.weight f4 [3, 24]
000000 69 84 0c be f6 67 36 3e d7 88 28 be 20 04 30 3d
       -0.13722385 0.17813095 -0.1645845 0.042972684
000010 d0 0f 96 be ac a2 1d 3e fc 27 d0 3d 69 a1 b9 3d
       -0.2930894 0.15394086 0.101638764 0.0906399
000020 fb 75 58 3d ee 98 97 be da 00 1a be 4c 4d 51 bd
       0.05284689 -0.29608864 -0.15039387 -0.051099107
000030 3e d0 02 be 52 1a e3 bd fc 56 a3 3d 0b db 04 be
       -0.1277475 -0.110890046 0.07975575 -0.12974183
000040 81 71 52 3e 22 1a 43 bd 96 55 89 3d a3 2c f3 bd
       0.20551111 -0.047632344 0.06705777 -0.11873748
000050 e0 23 22 be 25 ae 29 3d 9e 1f fe bd 72 c1 42 be
       -0.15833998 0.041425843 -0.12408374 -0.19019106
000060 ac ca 22 3d d8 35 bd bd c2 df 78 be 18 f3 17 be
       0.039744064 -0.092387855 -0.24304107 -0.14838827
000070 6d 29 9e be 10 df 3a bc 38 47 cc 3d ed 9d 22 3d
       -0.3089098 -0.011405721 0.099745214 0.03970139
000080 88 27 39 3d 2d f2 4d 3d 97 dc d9 bd 51 dc 92 be
       0.045203716 0.050279785 -0.10637777 -0.28683713
000090 86 56 3a 3e 6e ae 07 be d9 a6 81 3d 8e 30 ea 3d
       0.18197069 -0.13250133 0.06330652 0.11435042
0000a0 97 20 18 3e 8d 57 f3 3d 75 2e 1e be 1a ba 7d be
       0.14856182 0.11881933 -0.1544741 -0.24778023
0000b0 12 5b a6 3d 10 3d 37 3e 30 0c 28 3d 60 ce 97 3d
       0.08122839 0.17894387 0.041027248 0.0741241
0000c0 3a 34 17 be d4 cf fb 3d 24 5f 7a be f8 4b 37 3e
       -0.14766017 0.122954994 -0.24450356 0.17900074
0000d0 fd 59 b3 be 3c 07 19 be 08 db 1a 3d a9 f6 a2 bc
       -0.35029593 -0.14944166 0.03780654 -0.019893007
0000e0 a0 71 81 3d 3b 0b a2 be d1 59 d9 bc 21 76 dd 3c
       0.063205004 -0.31649193 -0.026532086 0.027033867
0000f0 e0 f2 e6 bd d0 7e 3d bd f8 9c 1c 3e 21 52 1b 3e
       -0.112767935 -0.046263516 0.15294254 0.15168048
000100 6b 84 3e 3e 72 ea 94 bc 0f aa 3b 3e 5a 80 a6 bd
       0.18605201 -0.018178198 0.18326591 -0.0812995
000110 12 56 82 3b 8f a5 2f 3e 56 49 4f 3e 7a 39 80 bd
       0.0039775455 0.17153 0.20242819 -0.06260963

layer6.bias f4 [3]
000000 cd 47 17 be 5e 0b 87 be 89 1e 8c 3d
       -0.14773484 -0.2637586 0.068417616
