SavedNets/CartPole-v1_best.pth (torch, 23409 bytes, 12 tensors)

layer1.weight f4 [64, 4]
000000 ef 49 8c be 28 ad 55 bd 34 ce a2 3d 54 6c f8 3c
       -0.27400157 -0.052167088 0.079494864 0.030325092
000010 7a 0f 28 bf 2e 12 8c bd 73 58 88 bf 65 b1 80 bd
       -0.65648615 -0.06839405 -1.0651993 -0.06283835
000020 33 6a 9f be 3c b2 54 be 73 6e 13 3f 01 0e f0 bd
       -0.3113571 -0.20771116 0.5759041 -0.11721421
000030 22 26 af 3e 01 c5 a6 3e a9 cb 9b be 36 e9 3b 3e
       0.3420878 0.32572177 -0.30428818 0.18350682
000040 d7 28 4f be 43 43 44 3e 1d 75 cc bd 3a ea 47 3e
       -0.20230423 0.19166283 -0.09983275 0.19522944
000050 cf 7c 8f be da 9c 9c be 57 bf 84 3e 16 93 ba 3d
       -0.2802491 -0.30588418 0.2592723 0.09110086
000060 ec 41 75 3f a1 ff dc 3e 35 69 d7 3e 32 36 91 3e
       0.95803714 0.4316378 0.42072454 0.2836166
000070 ab e3 de 3e 72 84 17 bf 30 53 53 bf 82 d0 03 bf
       0.43533072 -0.5918647 -0.8254881 -0.5149003
000080 1d 5b d6 3e 4e 33 f9 bd 2a db 28 be fa b2 f9 3d
       0.4186639 -0.12167989 -0.16489854 0.1219234
000090 16 8a 23 3f 1e 6b 74 bd 9f 7b b5 3e 52 b3 82 be
       0.6388258 -0.059672467 0.35445878 -0.25527436
0000a0 ae 82 85 3e 12 18 18 bf f5 2a 00 bf ee 52 9f bd
       0.26076263 -0.5941173 -0.5006555 -0.077794895
0000b0 c9 75 82 be 87 bc 94 3d 8f 5d 78 bf 19 b2 85 be
       -0.25480488 0.07262521 -0.9701776 -0.2611244
0000c0 a9 6f f3 3e 1b 24 1e 3f d0 96 a0 3f 9a d6 e3 3e
       0.47546127 0.6177384 1.2546024 0.44499665
0000d0 64 f6 3e 3f fe a6 01 3f f3 a4 a7 3f 7d 6c ac 3e
       0.7459471 0.50645435 1.3097214 0.3367652
0000e0 6c 72 5f bf cd bc 9f be ff 09 21 bf 6f bb 4f be
       -0.8728397 -0.3119873 -0.6290588 -0.20286344
0000f0 40 2d 5a bd 22 e0 ca 3d 0f 80 d7 3d 5e 8e 47 be
       -0.05326581 0.09906031 0.10522472 -0.19487903
000100 aa f1 2b bc 6f 13 02 be ba 52 80 3e a4 2d 4f be
       -0.010494629 -0.12702726 0.25063115 -0.20232254
000110 89 14 08 be 7e e2 df bd de 2f 9b bd 8a 9b 84 bd
       -0.13289084 -0.10931872 -0.07577489 -0.06474979
000120 5a 36 0b bf e1 b6 94 3e c6 94 07 3f 01 e7 c6 bd
       -0.5437981 0.29045776 0.52961385 -0.09712029
000130 c7 f0 4b be fd 0a db 3d fa 7d 1b 3f 92 f0 6e be
       -0.19916068 0.10695455 0.607391 -0.23333958
000140 3a 25 f7 3b bb ef 18 3e 2b 54 5e bf 16 8e 90 be
       0.0075422795 0.149352 -0.8684718 -0.28233403
000150 08 e5 a9 be 54 4a 1d 3f e2 bf 36 3f 5f 3f 13 be
       -0.3318255 0.6144154 0.7138654 -0.14379643
000160 74 d2 d6 be 3d 99 79 3d 31 e6 82 3e 69 02 da bd
       -0.41957438 0.060937155 0.25566247 -0.10644991
000170 13 0a 01 bd f0 46 6d be 2e 2b 04 3e 93 d2 8d be
       -0.03150375 -0.23171592 0.12907097 -0.27699718
000180 32 c8 16 be 97 ba a1 3e 81 2d 2a 3f 4e a3 4c 3e
       -0.14724806 0.3158767 0.66475683 0.19984171
000190 c6 cc b0 3e bb a2 61 3e 5b c1 f2 bd 13 a3 e0 3c
       0.3453123 0.22034733 -0.11853286 0.02742151
0001a0 59 55 5a 3f 43 8f 05 3f c2 c6 d9 3e f4 f3 97 3e
       0.8528648 0.52171725 0.42534453 0.2967831
0001b0 4c 4b 2d bf ff b6 1c bf 1a 70 75 bf a2 fb d8 be
       -0.6769302 -0.6121673 -0.9587418 -0.4237948
0001c0 4e 29 12 bf 4d e4 3b 3d 0d 41 5c 3f 38 5b 3d 3e
       -0.57094276 0.04587202 0.8603676 0.18491828
0001d0 20 3b 50 bb af f2 3d be 46 ea 2f 3e d0 82 09 be
       -0.0031773522 -0.18549608 0.17179212 -0.13428807
0001e0 5b d1 76 be a7 b7 23 3e 69 4a eb 3e 00 91 63 be
       -0.241033 0.15988027 0.45955208 -0.22223282
0001f0 a4 76 cd be c6 94 8d be 87 94 89 bf 1d 3c 9c be
       -0.40129578 -0.27652568 -1.0748452 -0.30514613
000200 21 ac ff 3e 04 35 90 bd 3f 1a be 3e 62 f4 a7 3c
       0.4993601 -0.07041362 0.371294 0.020502273
000210 ee 94 38 3e 86 0d d4 be fe c0 88 be d7 85 90 3e
       0.18025562 -0.41416568 -0.2670974 0.28227112
000220 38 f0 d6 b9 3f a9 b8 3b c0 79 81 3e 48 02 ef 3e
       -0.00040996238 0.00563541 0.252882 0.46681428
000230 76 d1 96 bc 35 d0 b2 3e c2 c9 45 bf 48 d9 7f be
       -0.018410426 0.34924474 -0.77260983 -0.2498523
000240 d2 b4 81 be 39 b2 ea be 98 22 d9 3e 76 47 8f 3d
       -0.25333267 -0.45839098 0.42409205 0.06996052
000250 f1 f8 b1 3e d4 0f 64 bd b2 6e f9 be 99 c1 52 3e
       0.3476024 -0.055679157 -0.48717266 0.20581664
000260 e2 23 ba 3e e8 5e 9c 3e 9f 14 73 3e 44 9d f9 3e
       0.363555 0.30541158 0.23738335 0.48752797
000270 15 b5 9e 3e 6f 5d d8 3e 85 cb ad 3f 29 56 ae 3e
       0.3099753 0.42258784 1.3577734 0.3405011
000280 24 c1 63 3f 03 00 b3 3e 56 58 33 3f 8c 49 72 3e
       0.88966584 0.34960946 0.70056665 0.23660868
000290 f3 92 43 3e 10 23 c2 be d1 d3 7c bf 50 18 ba bd
       0.19099025 -0.37917376 -0.98760706 -0.090866685
0002a0 cd ae 63 3e 71 31 b0 bd 92 ce b5 be bb 9f 87 be
       0.2223465 -0.0860318 -0.35509163 -0.26489052
0002b0 8a 5d f3 3e 86 15 00 3f 92 12 de 3e 6f 6b a0 3e
       0.47532302 0.5003284 0.43373543 0.31331965
0002c0 71 62 bb bd 80 6b fd be 4a 0c 8f bf 6c 41 4d be
       -0.091496356 -0.49496078 -1.1175625 -0.20044488
0002d0 75 99 12 bf 25 c7 5b 3e d8 ad b6 3e 74 0d 41 3e
       -0.57265407 0.21462686 0.35679507 0.18852788
0002e0 54 a9 53 be 64 a0 88 bd 8c a1 9d 3d c4 fb 30 be
       -0.20670062 -0.06671217 0.07696828 -0.17283541
0002f0 b3 3a 43 3f 08 29 43 be 07 80 90 3d 7e 6b 11 be
       0.7626144 -0.19058621 0.07055669 -0.14201161
000300 d9 3b 80 bd 55 2a 63 3c 8e 22 19 3f bc 68 e5 3e
       -0.06261415 0.013865073 0.5981835 0.44806468
000310 71 75 25 3e 76 6e d5 bc 5b 50 4e be 07 c5 8d 3e
       0.16158082 -0.026053648 -0.2014784 0.27689382
000320 4b e1 5a be b1 4b 97 3e 06 a9 02 be b3 d6 ac 3e
       -0.21375005 0.29549935 -0.1275979 0.33757553
000330 14 32 b5 3e 23 33 ee 3e 09 68 88 3f 33 ed b1 3e
       0.3538977 0.4652339 1.0656749 0.3475128
000340 54 96 81 be 04 ca 20 bd bb 4b d2 3e be 44 ed 3b
       -0.25310004 -0.039255157 0.41073403 0.0072408607
000350 76 df 16 3f bb 4d ca 3e f4 17 37 bf 6a 76 11 be
       0.58934724 0.3951243 -0.71520925 -0.14205328
000360 b1 88 58 bf 25 d1 e6 3c a6 b0 96 be 88 b9 fc 3c
       -0.84583575 0.0281759 -0.29431647 0.030850187
000370 15 d3 f3 be 0f d1 ce be 60 7c 2d 3e 90 2d 1a 3e
       -0.4762198 -0.40393874 0.16941977 0.15056443
000380 8f bf c6 be 2d 86 c4 3e 44 6c a6 3e 15 d9 d4 3e
       -0.38818023 0.38383618 0.32504475 0.4157187
000390 e7 78 cb bd f2 f2 15 bf 6b f5 98 be 79 9f e9 be
       -0.0993517 -0.5857383 -0.2987474 -0.4562948
0003a0 84 4f 6f 3e a7 21 ce 3e 6d 7d 66 be 16 b3 a0 be
       0.23370177 0.4026005 -0.22508784 -0.31386632
0003b0 16 ce 01 3f ac 1c 20 be 78 c2 4b 3e ff fe 04 be
       0.5070509 -0.15635937 0.19898403 -0.12987898
0003c0 04 d5 ce be bd 83 3b bf 2f 35 13 bf 7a 8f cd be
       -0.40396893 -0.7324789 -0.57503027 -0.40148526
0003d0 a9 15 bb 3d 26 76 56 be b7 db 81 be d8 51 a4 bd
       0.09134991 -0.20943508 -0.25362942 -0.08023423
0003e0 54 ed ba 3e 66 e6 1b bf b6 97 15 bf 6b b2 5d be
       0.36509192 -0.60898435 -0.5843462 -0.21650092
0003f0 73 dd 73 3e 97 43 d9 3e 13 8c 9b 3d f8 31 2e 3e
       0.23814945 0.4243438 0.075950764 0.17011249

layer1.bias f4 [64]
000000 1b 81 e2 3e 87 96 8f bb 2c 30 56 be 0b b7 ab 3e
       0.44239125 -0.004381958 -0.20916814 0.33538088
000010 6c 45 ab 3e 2a f3 e5 bd 8e 13 0c bc 28 81 40 be
       0.33451402 -0.112280205 -0.008549584 -0.18799269
000020 9c 3c 5c 3e b9 7c 87 be e9 8c 3b 3e ad bf ae be
       0.21507496 -0.26462343 0.18315472 -0.34130612
000030 77 8a 8e bb 92 d7 18 bb b4 6d 37 bc 41 98 05 3f
       -0.0043500024 -0.002332185 -0.011195589 0.52185446
000040 69 c7 87 3e e5 0c 12 3f 4f 3f 19 3f 04 dc 78 3e
       0.26519325 0.57050925 0.59862226 0.2430268
000050 07 bf 9b be 76 52 05 3f 16 55 6f 3e 8e 3e 11 3f
       -0.3041918 0.5207895 0.23372301 0.56736076
000060 35 64 92 3d 98 18 0d 3f 89 b8 b2 3e 67 d4 b9 3c
       0.07148019 0.5511565 0.34906414 0.02268429
000070 a5 bb 43 be 3e f7 ec 3e e2 ee 87 3e 69 ba 63 3e
       -0.1911455 0.4628238 0.2654944 0.22239079
000080 52 39 88 3e 61 60 f5 3c c3 eb ae be 12 09 a0 bd
       0.26606232 0.029953184 -0.34164247 -0.0781423
000090 4d 86 bf 3d 52 68 12 3f 2a 38 41 3e d1 0d e3 bc
       0.09351788 0.5719043 0.18869081 -0.02771655
0000a0 df 90 be ba aa f3 fa 3e fa ed 13 3f 1b ad d9 3e
       -0.0014539025 0.49014026 0.57785 0.42514881
0000b0 d1 ec 76 3d d6 ac 83 3e db ee 15 3f b6 fa 9b 3e
       0.06028444 0.257178 0.5856759 0.30464715
0000c0 6b 63 5d 3d cb 4d 01 3f d5 77 de 3e 87 21 03 3c
       0.05404989 0.5050933 0.434508 0.008003599
0000d0 1d c1 9d 3e 6e 57 69 3e 8d f4 4c bc 49 e5 46 3e
       0.30811396 0.22787258 -0.012509477 0.19423403
0000e0 6e 75 19 3f 7c 68 9c 3e 1c ba 06 bf d7 d7 eb 3e
       0.5994481 0.30548465 -0.5262773 0.4606311
0000f0 cb 6d 96 3e 00 88 d5 3e 9c 90 11 3e 9f 0d 74 3e
       0.2938064 0.41705322 0.1421532 0.23833321

layer2.weight f4 [32, 64]
000000 de ab 21 3d 99 4f 5e be f0 bf 0f be 9d cd 39 bd
       0.039470546 -0.21710052 -0.14038062 -0.045362104
000010 03 2a 8f 3d bf 02 37 bd ad cc 9d be 83 08 2a 3d
       0.06990435 -0.044680353 -0.30820218 0.041512024
000020 d7 0e a8 bd 3e bc ab 3c 33 3c 20 bc c5 d6 ad be
       -0.082059555 0.020963784 -0.009779978 -0.3395292
000030 9e 6c 1f bf 76 fd 95 be d5 95 07 bf 29 9e e2 bd
       -0.6227511 -0.29294938 -0.52963 -0.11065323
000040 ba f1 08 3e 29 83 0d 3e cc 56 8a bd e1 53 2e 3c
       0.13373461 0.13819565 -0.067548364 0.0106401155
000050 0e a4 42 be 56 80 a9 3c 37 16 4c bc 4b aa da 3d
       -0.19007894 0.020691078 -0.012456468 0.10677012
000060 a9 88 9d 3d 8d 03 99 3b 87 99 21 be ba de 20 bf
       0.076920815 0.0046696127 -0.15781222 -0.62839854
000070 3e 78 58 be 8e 6b 35 3c 9f 86 f7 bd 7c 22 85 bd
       -0.21139619 0.011073006 -0.12086224 -0.06500718
000080 fc 54 e6 3b 52 09 12 bd b2 a5 e1 bc b9 d7 6c bd
       0.007029174 -0.03565342 -0.02754483 -0.057822917
000090 fc 9f bc bd 45 b4 96 bc c8 17 9d bd 85 78 f5 be
       -0.09210202 -0.018396506 -0.076705515 -0.47943512
0000a0 d6 8d ae be 4f fb 7a bd e1 d3 ef bc eb 56 a0 3b
       -0.34092587 -0.061274823 -0.029275836 0.004893174
0000b0 bb d4 3f be c9 b7 3d bc 30 44 0f bd bd 62 b1 bd
       -0.18733494 -0.011579462 -0.034977138 -0.08661411
0000c0 a6 eb fc ba f0 f5 d7 3b 03 dd e3 3d 32 b0 ae bd
       -0.0019296303 0.0065905973 0.11126139 -0.085297
0000d0 fa 6c 0f 3e e4 e1 40 be 49 85 12 bf 2f c9 27 bc
       0.14006415 -0.1883617 -0.57234627 -0.010240837
0000e0 39 5b 82 3d d3 1c 60 3c 97 6a 19 be dc 2d 00 3e
       0.063650556 0.013678747 -0.14982067 0.12517494
0000f0 64 13 50 be 91 bb 12 3d 75 95 c0 bd 43 ee 26 bd
       -0.20319897 0.03582341 -0.09403507 -0.040754568
000100 66 89 4c 3e d1 2f b6 bd 5a 22 09 be 69 9a 90 3d
       0.19974288 -0.08895839 -0.1339201 0.070607014
000110 90 bf ba 3d a7 b7 38 3e 25 42 f4 be dc 70 dc 3d
       0.09118569 0.18038808 -0.47706714 0.10763714
000120 97 57 4d 3d 83 ac f1 bc 02 47 2e 3d 0e aa 06 3e
       0.05013236 -0.029501205 0.042548187 0.13150808
000130 be 48 6b bf bd 4f 0d bf e9 1f 2d be 1d 2a 53 3d
       -0.9190787 -0.55199796 -0.16906704 0.051553834
000140 6a d8 0e 3e 6b fc cc bc 6b 55 0c 3e eb 02 ff 3d
       0.13949743 -0.025022706 0.1370446 0.124517284
000150 f6 b3 b6 be 27 a0 01 3e f1 a5 42 3e 87 d2 fb 3d
       -0.35684174 0.1265875 0.19008614 0.12296014
000160 43 ec 36 3e 90 0c b6 bc ca 79 e5 bd 45 91 47 3d
       0.17863564 -0.022222787 -0.1120487 0.048722524
000170 91 8d 81 3d 95 89 70 3d 2f 9f d9 3d 0b b9 9d bd
       0.0632583 0.05872496 0.10626065 -0.0770131
000180 64 7e 72 bb 69 5d 1e 3d e7 d5 88 3d 8c a1 af bd
       -0.0037001604 0.0386633 0.06681424 -0.085757345
000190 33 6e 02 3e fc c0 77 3d f0 a4 9c bd 98 31 8d bf
       0.1273735 0.06048678 -0.07648647 -1.103076
0001a0 a8 71 0e bf 46 5f 60 3d e7 7c 7f bd c8 3c 09 3e
       -0.55642176 0.05477836 -0.062374976 0.13402092
0001b0 f8 d3 e4 bc 87 e1 2e 3e 9b ee 5d 3e 93 3c 13 bd
       -0.027933106 0.1707822 0.21673052 -0.03594644
0001c0 ee d7 0a be a3 00 00 3e b1 d1 8c 3b 7f 54 e0 be
       -0.13558933 0.12500243 0.004297458 -0.43814465
0001d0 84 66 7a 3e 92 4f 8d bd 02 e9 bd bd f7 d3 5e 3e
       0.24453169 -0.068999425 -0.09272958 0.21760546
0001e0 8c 46 ff 3d d2 c4 07 bc 2b da cd 3d d6 af a0 bd
       0.124646276 -0.008286672 0.10051378 -0.07846038
0001f0 d9 00 c4 bd 69 dd 41 3d 9b 1b 11 3e 4e cf aa bd
       -0.09570474 0.047330294 0.14170687 -0.083403215
000200 64 1f 2e 3c 8c a9 93 3e a0 6d ce be 9b 3f 5b 3e
       0.010627601 0.28840292 -0.40318012 0.21410982
000210 4f 17 ca 3c 15 a4 0a be 38 e1 c8 3e e3 79 b3 be
       0.024669318 -0.13539155 0.39234328 -0.3505393
000220 ea d0 22 3e 19 42 fe bd e7 76 a2 3d bb 60 ac bd
       0.15900007 -0.12414951 0.07932835 -0.084168874
000230 7e a7 0d 3f 8a 3b cb 3e ef 6f ca 3d c1 0a 05 3e
       0.553337 0.39693862 0.09884631 0.12992384
000240 00 da 66 3d 70 8c 80 3d bf 49 91 3d 19 a6 21 3d
       0.056360245 0.06276786 0.07094144 0.039465044
000250 01 57 14 bf e7 75 17 3e 8c da e7 be d3 13 26 3e
       -0.5794526 0.1479107 -0.45283926 0.162185
000260 00 fa a0 bd 64 5a 83 3e 03 c4 90 3e 93 2b b2 3e
       -0.07860184 0.256549 0.28274545 0.3479887
000270 ab 49 c6 be 08 05 75 3c cd 3e 91 bb 06 bd f4 3d
       -0.3872808 0.014954813 -0.0044325353 0.11950116
000280 63 01 bb 3d 7a 3c 3c bb 7f d9 c7 be ae 7e 1a be
       0.09131124 -0.002872257 -0.39033124 -0.15087387
000290 99 81 22 be 9e 2d 02 3e 30 7f 36 3e b4 55 c3 3e
       -0.1586975 0.12712714 0.17821956 0.38151324
0002a0 93 be aa 3e cd 1f c2 3e cf b5 85 3d 1d 66 73 3d
       0.33348522 0.37914887 0.06528818 0.059423555
0002b0 21 18 b6 3e 03 4d b8 be 80 16 95 bc bc 18 a0 3e
       0.35565284 -0.35996255 -0.018199205 0.3126887
0002c0 cd e2 15 bd 48 77 19 3e 09 03 63 3d 56 d6 69 3e
       -0.036593247 0.14986908 0.055422816 0.22835669
0002d0 dd 3d 07 3d 3d 04 82 3e ad ea b4 bd 55 a1 d0 bd
       0.03301798 0.2539386 -0.08833823 -0.10187022
0002e0 75 5a 31 be 7e 1e 3b 3e 49 57 85 be b9 a9 6d 3e
       -0.17319663 0.1827335 -0.26043156 0.23209275
0002f0 98 51 85 3e 1d 33 8d 3d c6 27 46 3e 00 a3 3a 3e
       0.26038814 0.06894515 0.1935111 0.18226242
000300 f9 82 6d 3e e8 20 af 3e ec d4 a2 bd 5c a1 f1 3c
       0.23194493 0.34204793 -0.07950768 0.029495887
000310 5b 6c 07 bd 98 e0 97 bd 6f c4 87 3e 0c 5c 07 3f
       -0.03306232 -0.07415885 0.26517054 0.5287483
000320 95 65 0b ba 6f de da 3d f4 90 5a 3e 24 07 4d 3e
       -0.0005317566 0.10686957 0.21344358 0.20022255
000330 5c 07 9a 3e 4b dd c4 3d de 51 5a 3e 06 e8 17 3e
       0.3008374 0.09612521 0.21320292 0.14834604
000340 16 5c bc 3c dc 45 12 3e 6c 67 87 bd 6a 31 85 bc
       0.022993129 0.14284462 -0.06611523 -0.016258914
000350 db ab 11 3f 49 ee d4 bd ba fd b4 be 60 d2 c0 3d
       0.56902856 -0.10397012 -0.35349828 0.09415126
000360 9f b3 c6 be f1 7d cb 3d a9 a0 38 be 63 87 b0 3e
       -0.38808915 0.09936131 -0.18030037 0.34478292
000370 95 70 3f bd 5e 89 e2 3d a7 63 98 3d 9d fb 23 3d
       -0.046738226 0.11061357 0.07440882 0.04003488
000380 9a a8 09 be 39 f2 19 be 13 ff de bd 39 c9 13 3e
       -0.13443223 -0.15033807 -0.10888495 0.14432229
000390 ef 36 93 bd ac 67 0d 3c 22 16 19 ba d3 80 d0 3c
       -0.07188212 0.008630674 -0.0005839785 0.025452053
0003a0 ad b2 3e 3e b9 8e 80 3e 14 83 56 3e af fa 9f be
       0.18622847 0.2510889 0.2094844 -0.31245944
0003b0 37 84 4b 3e 7a 89 ec be ff 3f 4a 3e 03 da b4 3d
       0.19874655 -0.46198636 0.19750975 0.08830645
0003c0 9c a4 a4 3b 8c 9a 03 be 67 67 8e be 59 da 1a be
       0.005024506 -0.12851924 -0.27813265 -0.15122356
0003d0 7b 05 c2 3d 71 2b 8e 3e 94 3b bb 3d 1b e4 ed 3d
       0.094737016 0.27767518 0.09142223 0.11615773
0003e0 6a d3 02 bf 9c 68 73 3e 96 61 32 3e 03 22 b3 3d
       -0.5110384 0.23770374 0.17420039 0.087467216
0003f0 9e 07 2a 3e ab df 3c 3e 17 7a 69 3e ce ce 52 be
       0.16604468 0.18444698 0.2280048 -0.20586702

layer2.bias f4 [32]
000000 49 31 eb 3b 3e 65 b9 3d 48 71 63 3d e4 6b 93 3d
       0.007177506 0.090525135 0.055527955 0.07198313
000010 90 12 a9 3c f6 f9 18 3e 40 25 c4 bd 91 86 04 3e
       0.020638734 0.14939103 -0.095774174 0.12941958
000020 0e 3b fc 3d 14 56 0a 3e 5a 9c 46 3e 90 19 c2 3d
       0.12315951 0.13509399 0.19395581 0.09477532
000030 d8 ca c5 3d 92 9b 52 3d d7 3d 97 bc 9d 41 0e 3e
       0.0965783 0.051417895 -0.018462105 0.13892217
000040 cd ad 74 bd db e9 82 3e b3 92 21 3b 6a f1 27 3e
       -0.05973606 0.25569043 0.002465409 0.16400686
000050 de e0 d6 3d eb 95 e3 bc b0 72 4e 3e 4c 53 09 bd
       0.10492109 -0.027781447 0.20160937 -0.033526704
000060 b7 ef e1 3d 8b 3f 95 bb 70 1d 21 3e a1 ce 12 3d
       0.1103205 -0.004554694 0.15733886 0.035841588
000070 75 71 8d bc f4 33 00 3e c1 96 95 3d 78 52 9d bd
       -0.017266015 0.12519819 0.07304145 -0.07681745

layer3.weight f4 [32, 32]
000000 e0 50 f9 bd e5 01 0c be 7c 41 bd 3e 58 92 b6 3d
       -0.12173629 -0.13672598 0.36964023 0.089146316
000010 9c 45 45 3d dc fb 11 3e 68 18 84 3c 3c ee 60 be
       0.048162088 0.14256233 0.016124919 -0.21965879
000020 28 0a 12 3e cf cd 16 be f0 a2 3f 3e 5a f6 e4 3d
       0.14261687 -0.14726947 0.187145 0.111798
000030 51 1f 78 3e a8 d7 5a bd d9 2e 45 be e4 0e 16 3f
       0.24230696 -0.053428322 -0.19256152 0.5861647
000040 34 d7 34 be 5b 4a fe bb 9d 61 b7 3d 91 db e7 3d
       -0.17660218 -0.0077603287 0.08954165 0.11321176
000050 30 4a 82 bc 15 cb 14 bc 36 6d 0d 3e 0c 4c db bc
       -0.015904516 -0.009081622 0.13811192 -0.02676966
000060 d5 8b a3 3b a0 96 2b bf 9e 5e 3d be 78 cc c1 3e
       0.0049910345 -0.6702671 -0.18493125 0.3785131
000070 ea 4e a4 3d a0 e5 fe 3d 36 24 b1 3d b1 8e 2d 3e
       0.08022864 0.12446141 0.08649485 0.16948964
000080 ee a8 6d 3e 07 3c 6d 3d e3 eb d8 3e 5d f7 0c be
       0.23208973 0.057918575 0.42367467 -0.13766237
000090 01 09 32 be 81 53 d0 3e 4c f5 3a 3d bb d9 ad 3e
       -0.17386247 0.40688708 0.04564409 0.33955178
0000a0 20 5d ac 3e cd 6e 70 3e 88 f1 80 3e 91 72 a2 bd
       0.336648 0.23479767 0.25184274 -0.07932008
0000b0 64 59 b1 3e 29 29 71 be b4 2d 6b 3d 47 2e 80 be
       0.34638512 -0.23550858 0.057416633 -0.25035307
0000c0 4c 85 a3 3e 2f 3a e7 3d 01 0b ad bd 20 f4 ae 3e
       0.31937635 0.112903945 -0.084493645 0.34170628
0000d0 ca 62 3e 3e 81 c5 5f bd c0 a9 8b 3e f7 ba f2 3e
       0.18592373 -0.054631714 0.27277946 0.47408268
0000e0 74 19 d6 3d 94 d6 a8 bd 19 01 8b bd 12 cf 9f 3e
       0.104540735 -0.082440525 -0.06787319 0.3121267
0000f0 e2 a5 16 bd 2a 57 9b 3e 2d 52 9b 3d 20 0c fe 3b
       -0.036779292 0.30339938 0.07584033 0.0077529103
000100 d3 dc 37 3e 1c 59 14 3d f8 74 86 bd ab 68 44 be
       0.17955332 0.036217794 -0.06565279 -0.19180553
000110 2a 38 2e 3e ab 8c 9e 3e c8 27 e7 3c be 7a 7f 3e
       0.17013612 0.30966696 0.028217211 0.24949166
000120 8e 87 a7 3e e8 79 0e 3e 57 a6 c6 3e 1d 27 75 bd
       0.32720608 0.13913691 0.38798782 -0.059851754
000130 a0 1b 96 3e 22 0c 55 be 8e 0a 18 3e fa 8a 15 bf
       0.2931795 -0.2080541 0.14847776 -0.58415186
000140 c8 7b 37 3e 96 e5 12 3e 18 55 02 3e 9a bf b8 3e
       0.17918313 0.14345393 0.12727773 0.3608368
000150 d5 bb 5a 3a e0 63 08 bd 71 ce 33 3e b5 d9 ed 3e
       0.0008344029 -0.033298373 0.1755922 0.4645516
000160 98 6f 37 3e 5f 6e 96 3e 73 fd 3d 3e 3a 0b ff 3d
       0.17913663 0.2938108 0.18553714 0.12453313
000170 29 5d 1c 3e 15 91 ad 3e 76 22 4d 3e 3d b5 c4 bd
       0.15269913 0.3389975 0.20032677 -0.09604881
000180 22 93 dd 3d 32 a5 44 bd c8 22 e5 3e 03 5d ea 3d
       0.10819079 -0.048009105 0.44753098 0.11443522
000190 5e eb f0 3d ec 17 bd 3d e0 64 67 bc f8 aa 3d bc
       0.11763643 0.09233078 -0.014123172 -0.011576407
0001a0 c6 19 06 be ba 1b b2 3d c8 e2 4d 3d d6 cf 85 bd
       -0.1309577 0.08696695 0.050265104 -0.06533782
0001b0 31 86 76 3e a4 fd 5f 3e a4 71 f8 be 29 21 06 3f
       0.24074627 0.218741 -0.485242 0.5239435
0001c0 06 35 07 3e 0f 3c 47 3e 8a 21 3b be da fd fa bd
       0.1320382 0.19456504 -0.18274513 -0.122554496
0001d0 b9 df e2 3c 40 75 80 3d d9 f4 33 3e 7d 5d e9 bd
       0.02769457 0.06272364 0.1757387 -0.113947846
0001e0 7d aa 48 3e 10 e1 09 bf 8c 91 af 3b c9 a1 79 3e
       0.19596286 -0.53859043 0.0053579267 0.24378122
0001f0 97 92 0d 3d 60 fd 92 3d cf e2 1b be cc fd a2 bd
       0.034563627 0.07177234 -0.1522324 -0.07958564
000200 40 ed 91 3d 26 e3 0b be cb bb 2c be 66 71 d1 bd
       0.0712533 -0.13660869 -0.16868512 -0.10226707
000210 c0 63 31 bd fe dc af bd ce 12 f5 3d 20 da 45 bc
       -0.04330802 -0.08587073 0.11966477 -0.012075931
000220 48 2e 83 3c b0 07 ea bc e4 38 d8 bd 14 73 65 3d
       0.01601328 -0.028568119 -0.10557726 0.05601795
000230 e2 a1 68 bd 94 21 17 be 00 9f 13 3b 3a 3d 9c 3d
       -0.05679501 -0.14758903 0.0022525191 0.076288655
000240 59 73 20 be a4 fc d8 bd 39 ff bd bd 4e 78 f9 3d
       -0.15669002 -0.105950624 -0.092771955 0.121811494
000250 40 31 0d be 98 00 d6 bc 10 88 4d 3c fe 48 6a bd
       -0.13788319 -0.02612333 0.012544647 -0.057198517
000260 ca f0 c5 3d a3 f6 a0 bd ab 0f 08 3e 28 80 36 bd
       0.096650675 -0.07859542 0.13287227 -0.044555813
000270 9d c9 a4 bd 74 56 40 bd 50 02 3e 3d e7 e8 21 3e
       -0.08046267 -0.046957448 0.046388924 0.15811501
000280 99 31 33 3e fb 8d 8b 3d aa 9d f8 bd 72 1f a2 be
       0.17499389 0.0681419 -0.12139447 -0.31664616
000290 3a d0 11 3d 35 a4 f3 3d 8e 32 96 bd 7f 49 9d 3e
       0.03559897 0.118965544 -0.07333861 0.30720136
0002a0 2e a2 97 3d 57 67 bf 3e 3d 28 32 3e af 5b 18 3e
       0.0740398 0.3738353 0.17398162 0.14878725
0002b0 70 a1 36 3e 01 15 b3 be f1 2b e0 3d 21 f6 fa be
       0.17835021 -0.34976962 0.10945881 -0.49015906
0002c0 ef 03 bd 3e c5 90 8f 3e 89 d8 85 3e ce 91 8c 3e
       0.36917064 0.28040138 0.26141766 0.2745499
0002d0 b9 5c fe bc c7 8a 1c 3e 3f 04 75 3e 40 37 5b 3e
       -0.031050073 0.15287314 0.23927401 0.21407795
0002e0 32 02 9f 3e a7 29 c3 3e 57 9e 91 3d 30 ad 56 bd
       0.31056362 0.38117716 0.07110279 -0.05241126
0002f0 bf b4 4b 3d 95 a0 19 3e aa a7 90 bb 17 be c6 bd
       0.04973292 0.15002663 -0.0044145184 -0.097042255
000300 ff d3 3f 3d 21 81 a8 bc b6 f4 ea 3e 1a c3 00 3e
       0.046833035 -0.020569386 0.45889825 0.12574425
000310 5b b6 62 3d 0d 22 35 3e 20 9f 0f be e3 36 b0 3e
       0.05534969 0.1768877 -0.14025545 0.34416875
000320 fc 99 df 3d 18 37 3f 3e 96 b9 ae 3c e2 11 dd bd
       0.10918042 0.1867336 0.021328729 -0.107944265
000330 0f 5c 8c 3e 1b f2 35 3e f9 25 9f be e6 15 d4 3e
       0.27413985 0.17768137 -0.31083658 0.41422957
000340 5b ff 1d 3d 06 18 23 3e 85 76 d1 3c 63 49 6d 3e
       0.038573604 0.15927133 0.02556921 0.23172526
000350 6c 94 ce 3d de e2 4e 3e 03 62 87 bb bf 5c 26 be
       0.10086903 0.2020373 -0.004131557 -0.16246317
000360 d1 e8 82 3e fb 9c 2a bf 98 7a 36 be 2e 55 d3 3e
       0.2556825 -0.66645783 -0.17820203 0.41275924
000370 cf 23 fd 3c 00 97 14 3d cd 0f 15 3d db d2 11 3e
       0.030900864 0.036276817 0.036392022 0.14240591
000380 4f 0f b2 3e 52 75 84 bb 50 d2 a2 be 2a 00 bb be
       0.34777305 -0.004042306 -0.3180108 -0.36523563
000390 7f 86 29 be 2a d8 94 3e 6b 40 1b be 2c 05 ce 3e
       -0.16555212 0.2907117 -0.15161292 0.4023832
0003a0 b0 7f 97 3e 9c 19 74 3e cd 7b 25 3e 92 5c 14 bc
       0.29589605 0.23837894 0.16160508 -0.009055274
0003b0 74 20 7d 3e 54 52 0e be 59 2a 95 3e fc e6 25 bf
       0.24719411 -0.13898593 0.2913387 -0.6480558
0003c0 ef 58 a3 3e 4a 03 6d 3e 2c df 99 3e cf c7 8b 3e
       0.31903788 0.23145786 0.3005308 0.2730088
0003d0 22 d8 d3 3d b4 54 9d 3d c8 28 c6 3e 7c c9 4e 3e
       0.103439584 0.076821715 0.3870299 0.20194048
0003e0 a9 be 3c 3e d1 02 44 3e 42 a2 9f bc e5 c5 89 be
       0.18432106 0.191417 -0.01948655 -0.26908794
0003f0 c4 ca 80 3e 95 a6 3f 3e 57 a5 3e 3d 9a a3 75 bd
       0.25154698 0.1871589 0.0465444 -0.059970476

layer3.bias f4 [32]
000000 ba cf a1 bd 24 1e 20 3e 35 69 0b 3d 78 54 1a be
       -0.07900949 0.15636498 0.03403588 -0.15071285
000010 8e 28 a7 bd ec 17 6c 3e 8b 22 6d 3e 5a db d5 3d
       -0.08162032 0.23056 0.23157708 0.104422286
000020 03 7d c8 3c ed 03 b1 3d 66 da e7 3d 9c 67 66 3e
       0.024473673 0.08643327 0.11320953 0.22500461
000030 43 14 00 3e 11 27 d6 bd 7d 85 12 3e f8 bd b5 3d
       0.12507729 -0.1045667 0.14308734 0.08874124
000040 8f dc 80 3e 7b 45 b8 bd 3a 7c 8d 3e 3f 81 44 3e
       0.25168273 -0.08997627 0.2763384 0.19189928
000050 8e 02 94 bc 3d c4 67 3d 93 fa 85 3e bd a7 fb 3c
       -0.018067624 0.05658363 0.26167735 0.030719632
000060 72 ac d6 bd e6 16 3a 3e c4 f4 af 3a b5 d4 1d be
       -0.1048211 0.18172798 0.0013424386 -0.15413173
000070 c1 27 62 3e 87 3b 10 bd a1 23 33 3e 14 00 a2 bc
       0.22085477 -0.03521302 0.1749406 -0.019775428

layer4.weight f4 [24, 32]
000000 43 1e 9e 3d e2 85 b9 3e fb aa 18 3e 84 cb 2b 3e
       0.07720616 0.36234957 0.14908974 0.16776854
000010 2c d6 05 3d a7 b2 1b 3e c5 23 90 3e 7c 7c 7e 3e
       0.032674953 0.15204869 0.2815229 0.24852175
000020 45 c5 8d 3e 79 28 80 3d 04 cf 65 3e ae 29 0c 3d
       0.27689567 0.062577195 0.22442251 0.034219436
000030 1f 89 eb 3e cf a0 08 3e 6b 54 65 3e 64 2e 8e 3e
       0.46003053 0.13342594 0.22395484 0.27769768
000040 22 9f 99 3e 1a 8a 95 3e 6f b7 53 3e 98 ec c6 3e
       0.3000422 0.29206926 0.20675443 0.38852382
000050 69 15 1d bf c4 fe 38 3f 2c 48 95 3e 0f 65 e5 3d
       -0.61360794 0.7226374 0.29156625 0.11200916
000060 09 14 d0 3e ce 52 bd be c6 0e da be a6 be b6 3e
       0.40640286 -0.36977237 -0.42589396 0.35692328
000070 d7 3d 55 be c8 02 74 be 59 e6 41 3e 9e 44 c8 3e
       -0.20824371 -0.23829186 0.18935527 0.3911485
000080 05 a0 8a be 8f 38 4f 3c c3 d6 04 3e 9e 24 87 be
       -0.2707521 0.012647762 0.1297255 -0.26395124
000090 9b b8 19 3e f2 56 9a 3e e3 f7 9f bd b4 52 5f 3e
       0.15011828 0.3014446 -0.078109525 0.21808892
0000a0 4d eb a3 3e 60 12 6b 3e 48 bd 0a 3e df 75 3a 3e
       0.32015458 0.22956228 0.13548768 0.18209027
0000b0 bc 7e f5 3e f2 64 ce be db 69 57 3e 48 d4 41 3e
       0.47948253 -0.4031139 0.21036474 0.18928635
0000c0 e3 a2 59 3e bd 4f fc 3e 4e d0 c2 3d f5 89 9a 3e
       0.21253543 0.49279585 0.09512387 0.30183378
0000d0 9d 8a 98 be 05 c3 ec 3e 27 c1 c1 3c da 31 74 3d
       -0.29793254 0.46242538 0.023651673 0.059617855
0000e0 75 a9 f3 3e 6e 6d 4d be f0 2c 61 be fc 30 fd 3e
       0.47590223 -0.20061275 -0.21989799 0.49451435
0000f0 e5 b6 0d be 53 a3 95 bc b7 86 98 3e 61 b4 04 3f
       -0.138393 -0.018266356 0.2979028 0.51837736
000100 1f 03 11 3e 77 17 a0 bd 09 c7 2e be fa f9 08 be
       0.14161347 -0.078169756 -0.17068113 -0.13376608
000110 c0 cc cf bc 76 0f 81 bd 85 70 9b bd b2 e0 3f bd
       -0.025366187 -0.06301777 -0.07589821 -0.046845146
000120 9e ed 1b bd f4 cd f9 3c f3 e3 05 be 5b 26 67 bd
       -0.038068406 0.030493714 -0.13075237 -0.056433063
000130 01 87 86 3d e5 63 02 be 68 bb 30 be 44 60 04 3d
       0.06568719 -0.12733419 -0.1725899 0.03231837
000140 b5 9e 15 bd 87 a2 94 bd 20 e3 24 be 27 81 b8 3d
       -0.036528308 -0.07257562 -0.16102266 0.09009009
000150 31 61 0e 3e 4d 44 ac 3c 1e 29 97 3c bd 7c 06 3e
       0.13904263 0.021028662 0.018452223 0.13133521
000160 bd 61 10 3e 16 c5 aa bd 15 f8 08 3d ad 95 2b be
       0.14099784 -0.083383724 0.033439714 -0.16756316
000170 89 3e ac 3d 7c 96 95 bb bf 64 24 bd 5d b4 f7 3a
       0.08410365 -0.0045650583 -0.04013514 0.0018898357
000180 45 10 2f be 77 c0 f1 3d 7c 90 60 3e c8 d6 a2 be
       -0.1709605 0.11804288 0.21930116 -0.3180449
000190 94 05 b3 bd de 8d 88 3e 65 8e 93 be 41 98 a4 3e
       -0.08741298 0.26670736 -0.28819576 0.3214741
0001a0 a2 31 82 3e 51 4b 21 3e 52 7a c0 3e 96 f3 a7 3e
       0.25428492 0.15751387 0.37593323 0.3280303
0001b0 b1 57 d3 3e 9f a3 90 be 50 b3 62 3e 67 47 df 3e
       0.4127784 -0.28249833 0.22138715 0.43609163
0001c0 1d e8 6f 3e 6a b2 05 3f 21 3e 7f 3e bb bc fe 3d
       0.23428388 0.52225363 0.24926044 0.12438341
0001d0 aa 39 ac be 8b fc 1a 3f 19 b1 43 3e c0 85 a6 3e
       -0.33637744 0.605416 0.19110526 0.32523918
0001e0 e6 97 f0 3e e6 74 ae be 15 59 2b bf bb 8f 8c 3e
       0.4699089 -0.3407356 -0.66932803 0.27453408
0001f0 12 4d c1 bd fd 4f 4f be 5f 02 47 3e e4 f6 94 3d
       -0.09438528 -0.20245357 0.19434498 0.07273653
000200 4a 70 15 3f 5e f7 ac 3e 92 0a c3 3e 81 63 1c 3f
       0.58374465 0.33782476 0.38094002 0.6108933
000210 18 e0 c2 3c 6d d9 cc 3e a7 80 c2 3e 8a ab a5 3e
       0.023788497 0.40009633 0.3798878 0.32357436
000220 c6 1c 52 3e da 31 31 3e 9b a9 17 3e f6 29 bb 3d
       0.20518789 0.17304173 0.14810793 0.09138863
000230 b3 f0 b7 3d d2 31 99 3e 4c 2c f1 3e da f8 4f be
       0.089814566 0.29920822 0.47104108 -0.20309773
000240 2b 66 a7 3d 47 49 1f be d7 09 08 3f fc fe 90 3e
       0.08173784 -0.15555297 0.53140014 0.28319538
000250 bd 69 42 be 32 1d 74 be 67 7d d4 3e 9a 0b 5e bd
       -0.18985648 -0.23839262 0.41501924 -0.054210283
000260 80 23 09 bf 2f 1d 06 3d bd 11 fb 3e aa a2 72 be
       -0.53569794 0.032742675 0.4903697 -0.23694864
000270 e3 97 06 3e d2 80 2a bd 8e a9 de 3e 34 c1 c5 3e
       0.13143878 -0.04162676 0.43488735 0.38623965
000280 73 1e 10 be b8 1c 00 3d c2 9a 13 be a8 8e 9e 3c
       -0.14074115 0.03127739 -0.14414504 0.019355133
000290 9a 39 10 be 1c 3c 0f be 65 fb 10 be 64 44 7d bd
       -0.14084473 -0.13987774 -0.141584 -0.0618328
0002a0 14 0f 48 3d 0e c1 d7 3d 06 aa 9a 3d c0 ca 9c bd
       0.048842505 0.10534869 0.07551961 -0.07655859
0002b0 a8 8f d8 bd 96 de 98 3d dc f4 34 3d b0 9e df bc
       -0.10574275 0.0746433 0.04417883 -0.027297348
0002c0 03 b4 1a be 9b f6 18 3e 21 9c d2 bd 25 24 2e be
       -0.15107732 0.14937823 -0.102836855 -0.17005976
0002d0 60 03 59 bc dc 6f 1e bd 63 6c 13 be a0 de 02 3c
       -0.013245434 -0.038680896 -0.14396815 0.007987648
0002e0 41 14 21 3e fe 29 cb 3d da d9 bf 3d 00 d3 03 bc
       0.15730383 0.09920119 0.09367724 -0.008045912
0002f0 22 b6 01 be b4 1f 7e bd 24 b4 17 bd c0 e2 33 3b
       -0.12667134 -0.062041953 -0.03703703 0.0027448386
000300 85 c0 8a be 9f 01 76 3e 3f 94 94 3e f5 11 80 be
       -0.27100006 0.24024056 0.29019353 -0.250137
000310 e6 1d cb 3d b6 a1 56 3e 90 a8 b1 bc db b1 b3 3e
       0.09917812 0.20960125 -0.021686822 0.3509663
000320 62 e5 8f 3e 12 65 ad 3e e4 c2 d6 3d 1e ec 82 3e
       0.28104693 0.33866173 0.10486391 0.25570768
000330 48 ef a5 3e 5a f2 c6 bd f2 6f a4 bd 1c 63 f4 3e
       0.3240912 -0.09714194 -0.080291644 0.47731864
000340 a4 59 29 3e 07 ed 38 3e b6 9a 2a 3e a5 fe 56 3e
       0.16538101 0.18059169 0.1666058 0.20995577
000350 ff ef eb be af fd f2 3e e8 07 1c 3d 5d 99 08 3e
       -0.4608154 0.4745917 0.038093477 0.13339753
000360 f8 36 ae 3e c2 c3 ff be a7 b2 23 bf 46 63 76 3e
       0.34026313 -0.4995404 -0.63944477 0.24061307
000370 ce 7a 5a bd cf 75 c9 be 93 c7 95 3d f8 60 bb 3d
       -0.053339772 -0.39347693 0.073134564 0.09149355
000380 94 f3 b9 bd 6f 76 0b be 9d fa e5 3d 67 71 d6 be
       -0.09079662 -0.13619398 0.11229441 -0.41883394
000390 70 d0 ab 3c b9 37 c6 3d 91 00 33 be 80 52 65 3e
       0.020973414 0.09678597 -0.17480685 0.22394753
0003a0 86 76 97 3e db d6 a5 3d 09 d1 84 3e ef 25 c0 3e
       0.29582614 0.08097621 0.2594073 0.3752894
0003b0 f2 96 d1 3e 1d 87 ae be 30 72 93 3f 84 9c 98 3e
       0.40935475 -0.34087458 1.1519222 0.29806912
0003c0 eb 24 b4 3e 8b 63 3e 3e ed 48 1d 3e 9b 1f 82 3e
       0.35184416 0.1859266 0.1535985 0.25414738
0003d0 23 26 3b 3e 1b 4e eb 3e fe 63 a3 3e 38 4e c8 3d
       0.18276267 0.45958027 0.31912225 0.09780544
0003e0 6d 06 ff 3e b9 25 6f 3e 7a 4f b8 3d 69 b5 b2 3e
       0.4980959 0.23354234 0.08999534 0.3490403
0003f0 40 f9 27 bf 39 88 90 3d 6c 67 5d 3e d1 9b 9b 3f
       -0.656147 0.070572324 0.21621484 1.2156926

layer4.bias f4 [24]
000000 f2 81 4f 3e 03 f4 0e 3e d5 aa 46 bd 38 22 97 3d
       0.20264414 0.1396027 -0.048502762 0.073795736
000010 10 92 a7 3e 95 e0 1a be 49 39 91 3e 34 21 0f 3e
       0.32728624 -0.15124734 0.28364018 0.1397751
000020 8c 22 3a 3e f4 6e 2e 3e 27 fa 07 3e c3 7b b7 bb
       0.18177241 0.17034513 0.1327902 -0.0055994703
000030 76 17 b5 3e 41 f0 c4 bd 7f 81 a5 3e ca 43 96 3e
       0.35369462 -0.09616137 0.3232536 0.29348594
000040 30 e3 e1 3d 97 9b 72 3e 71 31 22 3e 3b 09 50 3e
       0.11029661 0.23692165 0.15839173 0.20316021
000050 50 c0 1b 3e e6 21 70 bd 17 dd b5 3d b3 2d d4 39
       0.1521008 -0.058626078 0.0888006 0.0004046984

layer5.weight f4 [24, 24]
000000 d2 35 a7 3e 32 64 a3 3e 4c 25 34 be e9 01 9d 3b
       0.3265825 0.3191238 -0.17592353 0.0047914875
000010 d2 d6 97 3e 08 a7 4e 3d fe cd ce 3e 72 8f 61 bd
       0.29656082 0.050452262 0.40391535 -0.05506844
000020 db 10 c0 3d f3 f2 49 3e ef e8 da bb b3 5d 47 be
       0.09378215 0.19721584 -0.0066806 -0.19469337
000030 8b f2 d3 3e 7c e5 33 be 85 1a d6 3e 58 3c 93 3e
       0.41395983 -0.1756801 0.41817108 0.28756976
000040 c9 7a 68 3c 09 99 4a 3e 09 aa 81 be 0c 52 da be
       0.0141894305 0.19784941 -0.2532504 -0.42640722
000050 9d c6 e9 3c da 8a 1c 3e b8 b2 d3 bc 59 3d b9 be
       0.028537089 0.15287343 -0.025842056 -0.36179617
000060 40 1d 24 3c a4 f4 2f 3e 3a 85 b3 bd ec 34 40 3e
       0.010016739 0.17183167 -0.08765645 0.18770188
000070 44 55 12 bd ae 7f 1c 3e a0 dd 1f be fd 4f 2e be
       -0.035725847 0.15283081 -0.15611887 -0.170227
000080 94 0f a8 bd 98 bb c1 3c 50 b2 69 bc 95 08 bd bd
       -0.08206096 0.023649022 -0.014263704 -0.092301525
000090 a4 9f 61 bd 3f 87 0d be 4c 69 27 be 88 1f ef 3d
       -0.055083886 -0.13821124 -0.16348761 0.11675936
0000a0 e2 96 92 bd 21 ed 16 be 1c 93 e8 3d a5 f9 a9 bd
       -0.07157685 -0.14738895 0.11356184 -0.08299569
0000b0 c4 0a 87 3d 3c 52 91 3d 64 df ec bd 0d 2f d6 bd
       0.0659385 0.07095763 -0.11566046 -0.10458193
0000c0 47 04 a9 3e 0d 7f b1 3e ec a2 ac 39 83 f0 24 3e
       0.33011076 0.34667245 0.00032927783 0.16107373
0000d0 85 8c 41 3b d8 dd 3a 3e b2 fa a8 3e 39 b2 a6 3e
       0.002953322 0.18248689 0.33003765 0.32557848
0000e0 1e 5c b4 3e 90 b6 56 3e da bb 8c 3d a2 5d 58 3c
       0.3522653 0.2096808 0.06871767 0.013205918
0000f0 b0 36 c9 3e 45 f1 b8 3d 3b 96 46 3e 2b 81 ed 3e
       0.39299536 0.090303935 0.19393246 0.4638761
000100 4e 93 af 3e 85 ec de 3e 07 54 72 be 80 89 25 bf
       0.34292072 0.43539825 -0.23664866 -0.64662933
000110 e5 23 6a bc 32 b4 8c bd 1e d0 f2 bd 39 5f aa be
       -0.0142907845 -0.06870307 -0.118561015 -0.33275774
000120 d6 f5 64 3e 69 56 a6 3e 08 6e 29 3e 5b f1 e1 3e
       0.22359404 0.324878 0.1654588 0.44129452
000130 7a 11 f5 bd e4 8e 2f be be bd 9b 3e 00 3d 85 3e
       -0.11966224 -0.17144352 0.304182 0.26023102
000140 4a d9 06 3d 86 83 56 3d ce ba be 3d 68 b3 a5 be
       0.032922067 0.052371524 0.09312974 -0.3236344
000150 23 d5 29 3d bc 83 22 bd 24 50 af 3e 5c ec c0 3e
       0.04146303 -0.039676413 0.3424083 0.37680328
000160 29 bf 82 3e 3f d8 ca 3e 1b d1 49 bf 00 17 33 bf
       0.2553647 0.39618108 -0.78834695 -0.6995697
000170 22 4e 26 be cc 69 ec 3d 57 37 8b 3d ac 9a 2c bf
       -0.16240743 0.11543617 0.067976646 -0.6742351
000180 0e fa 63 3d 77 1a 0f bf d0 3d 94 3d 0c 8f 43 be
       0.055658393 -0.5589976 0.07238352 -0.19097537
000190 5b 15 3b 3e 66 ce f9 bd e6 0c 40 bf 3f 66 d7 be
       0.18269865 -0.121975705 -0.7501968 -0.42070195
0001a0 6a 84 5a bf 96 70 1b bd b2 76 2e bf a7 0f 40 3e
       -0.853583 -0.037949167 -0.68149865 0.18755971
0001b0 70 8c 4c bc a0 78 31 3d d9 e4 d1 bd fa bd b7 be
       -0.012484655 0.043327928 -0.10248727 -0.35887128
0001c0 6f 61 7c be f0 fc 28 bf 09 37 0d bf 0f 7a 8d 3e
       -0.24646543 -0.6601095 -0.551621 0.27632186
0001d0 8b d8 94 be 10 fc d2 bc 98 50 c2 3d 55 cb cc 3e
       -0.2907146 -0.025754958 0.09488028 0.3999888
0001e0 d8 f3 4b be dc 28 e3 3d 58 0c 90 3d 40 d7 c0 3d
       -0.19917238 0.11091778 0.070336044 0.09416056
0001f0 ac 49 43 bd 8c 81 12 3d 89 2a 1d be 6c 41 df 3d
       -0.04767768 0.035768077 -0.15348257 0.1090115
000200 d0 39 04 be fa 4c 0a 3e 97 26 50 be c4 7e 2d bd
       -0.12912679 0.13505927 -0.20327221 -0.04235722
000210 56 89 11 3e d6 cb 9a bd 2c 64 23 be 84 aa c3 3d
       0.14212546 -0.0755841 -0.15956181 0.09554008
000220 d0 89 05 3c 50 db 6f bc c0 94 68 bd ba da 15 3e
       0.008150533 -0.0146396905 -0.056782484 0.14634219
000230 40 a9 ad 3d 84 6f 33 3d b8 eb 40 bd 27 e7 44 be
       0.084795475 0.04380752 -0.0470998 -0.19228803
000240 44 4f f4 3e 58 d4 9d 3e dc b3 0e be c3 72 61 3e
       0.47716725 0.30826068 -0.13935798 0.22016434
000250 c5 f9 b3 3e 0c fe 72 bd 12 86 00 3f 7a b3 1f 3e
       0.35151497 -0.05932431 0.50204575 0.15595809
000260 ee 89 e0 3e fd 57 b8 3e a1 24 7d be 24 05 21 be
       0.43855232 0.3600463 -0.24721004 -0.15724617
000270 3d 5e a4 3e ff 66 fe bd c0 19 94 3e 78 79 a5 3e
       0.32103148 -0.12421989 0.28925896 0.32319236
000280 c1 85 a2 3d 28 08 49 3e 59 c2 c6 be fe ed a7 be
       0.07935668 0.19632018 -0.3882015 -0.3279876
000290 a2 07 34 bd 79 8b 13 be d4 88 07 be 56 16 83 be
       -0.04395259 -0.14408673 -0.1323579 -0.25602978
0002a0 3b fa c9 bd 74 f9 d5 3d 23 cf 4b be 10 99 1d be
       -0.09862181 0.1044797 -0.19903235 -0.1539042
0002b0 48 56 91 bc e0 21 3c 3c c0 11 8c bd 38 95 ec bd
       -0.017741337 0.011482686 -0.06839323 -0.11551899
0002c0 e9 e8 1e be 80 d5 2e bb b8 92 17 be 1a 8c 33 be
       -0.15518536 -0.002667755 -0.14802063 -0.17533913
0002d0 ac 2d e9 bd c2 44 01 be 0c e9 15 3d f8 49 07 3e
       -0.11385664 -0.12623885 0.036599204 0.1321181
0002e0 e4 e3 a2 3d f0 67 bd 3d e2 18 3e 3e a0 95 fe bc
       0.07953623 0.0924834 0.1856418 -0.031077206
0002f0 98 4c 66 bd 58 d6 b2 3c a8 e3 5c 3d e0 29 de bd
       -0.05622539 0.021830723 0.053928047 -0.10847831
000300 d2 91 14 3e c3 f0 9d be e8 a8 01 3e 70 31 97 be
       0.14508751 -0.3084775 0.12662089 -0.29529905
000310 63 11 75 3e 84 ba 01 3d 79 bc 8c 3d e6 c3 d8 bd
       0.23932414 0.031672016 0.06871886 -0.1058424
000320 14 d8 6d 3e db 0f 4f 3e 8c 41 25 be c4 32 48 be
       0.23226959 0.20220892 -0.16138285 -0.19550616
000330 a4 27 25 3e 8b 57 9b bd c3 bd d6 3d 91 15 5d 3d
       0.16128403 -0.07585057 0.10485413 0.053975645
000340 cb ce a4 be 99 76 a3 bd c4 66 03 bf b3 e5 85 bd
       -0.3218902 -0.07981605 -0.5132868 -0.06537952
000350 44 77 0e 3d 38 05 58 3d 68 ce e5 3c e7 58 80 3e
       0.03478171 0.052739352 0.028052524 0.25067827
000360 72 b5 e6 3d 4e 60 c9 3e ab 00 1b 3e 1e 40 94 3d
       0.11265077 0.39331287 0.15136974 0.07238792
000370 11 e6 4b be 34 82 da 3d 16 ee e0 3e d3 bb 16 3f
       -0.19911982 0.106693655 0.43931645 0.58880347
000380 f0 48 d9 3e e8 38 6d 3e 61 17 1d 3f a3 0b b9 be
       0.4243846 0.2316624 0.613638 -0.3614169
000390 d3 a3 d3 3d 98 e1 d3 3c 2c 5f c0 3e 45 6f 80 3e
       0.10333981 0.025864407 0.3757261 0.25084892
0003a0 aa 44 45 3e d3 a5 d3 3e 8b 15 c5 3c 18 c6 3d be
       0.19264475 0.4133745 0.024058124 -0.18532598
0003b0 59 44 9d 3e b0 c8 19 bc de 21 eb 3d 87 26 91 bd
       0.30716208 -0.009386227 0.11481069 -0.07087427
0003c0 f7 21 18 3e 94 de d3 3e 36 0c 2a be 6f 46 a5 3e
       0.14856707 0.4138075 -0.1660622 0.322803
0003d0 b1 06 9f be c6 08 15 be 8e 73 4a 3e 09 f0 8c 3d
       -0.31059793 -0.14554128 0.19770643 0.068817206
0003e0 29 89 91 3e 12 01 69 3e c1 6a 63 bc 26 0b 8c be
       0.28424957 0.22754315 -0.013880433 -0.27352256
0003f0 2c a7 17 bc af 5c 26 3e 73 f1 9c ba 38 50 ca 3d
       -0.0092561655 0.16246293 -0.0011973813 0.09878582

layer5.bias f4 [24]
000000 5c e9 47 3d 40 e5 71 bd 1f 95 0d 3e 56 57 92 3d
       0.048806533 -0.05905652 0.13826416 0.07145564
000010 e3 c4 9a 3d 2b f0 2e be 62 a7 6f 3e b4 69 54 bd
       0.075570844 -0.17083804 0.23403695 -0.05185862
000020 4e 9b ba bc a5 30 81 3e 68 e5 27 be 76 06 91 3e
       -0.022779133 0.25232425 -0.16396105 0.28325242
000030 44 4e ed bd 24 29 55 3e ab e2 30 3d 60 ef 52 3d
       -0.115871936 0.20816475 0.043184917 0.051497817
000040 db c5 01 3e fd 86 f2 bd 6c 3a 8b bd 5f f6 96 be
       0.12673132 -0.11842153 -0.067982525 -0.2948484
000050 2c 0c 69 3e 88 36 9c 3e f6 c8 1a 3e 87 6d b9 3d
       0.2275855 0.30510354 0.15115723 0.09054094

layer6.weight f4 [2, 24]
000000 75 be 0c 3f 84 e8 39 be 4a a9 e5 3e 6b d1 e0 3e
       0.54978114 -0.18155104 0.4485572 0.43909773
000010 bd b3 0f bf e8 1d 26 bd b9 82 cf 3e 22 9e fb bd
       -0.56133634 -0.040555865 0.4052942 -0.12286021
000020 3c 53 a2 be 96 4e 2a 3e 95 f0 b1 3e 39 bc 1f bf
       -0.31704128 0.1663154 0.34753862 -0.6239658
000030 d7 34 94 3e 5b f5 aa be 6a 7a 68 be 24 15 10 3f
       0.28946564 -0.33390316 -0.22702947 0.5628226
000040 ab d0 a2 3e b7 af 96 3e f0 fe 9d 3c d2 71 97 bd
       0.31799826 0.29430935 0.019286603 -0.073947564
000050 89 3d e3 3e 73 ce 27 3f c5 0d 73 3e fd 64 99 3d
       0.44382885 0.6554939 0.23735721 0.07489965
000060 31 a4 12 3e c9 b9 39 be 8d 10 ea 3e db ed ad 3e
       0.14320447 -0.18137278 0.45715752 0.33970532
000070 47 81 f6 be d0 55 74 bd 7b 7d 44 3e 38 d0 8d bd
       -0.48145506 -0.05965215 0.19188492 -0.0692448
000080 5d 2e 13 3f 65 ac fa 3e c8 1e 91 3e 03 d4 24 bf
       0.5749262 0.48959652 0.28343797 -0.64386004
000090 c8 20 c9 3e 74 e0 06 3e df 49 c8 3e a2 60 b8 bd
       0.39282823 0.1317156 0.3911886 -0.09002806
0000a0 88 c0 f5 3e 63 7f b4 3e 00 0f 13 3b e5 f9 9c 3e
       0.47998452 0.35253438 0.002243936 0.30659404
0000b0 81 6a a3 3e a3 ee 0f 3f e3 20 0c 3f bc c6 08 be
       0.31917194 0.56223506 0.5473768 -0.13357061

layer6.bias f4 [2]
000000 66 0f ce 3e 2f 4e de 3d
       0.40246123 0.10854756
