SavedNets/CartPole-v1_dqn.pth (torch, 23409 bytes, 12 tensors)

layer1.weight f4 [64, 4]
0	0xbeaee4ce	-0.3415894
1	0xbdbc51be	-0.091952786
2	0xbe1967de	-0.14981028
3	0xbd5d80b0	-0.054077804
4	0xbf146cca	-0.579785
5	0x3cf1073a	0.029422391
6	0xbf5bc447	-0.8584637
7	0xbdd25a17	-0.102710895
8	0xbe0eb011	-0.13934352
9	0xbe19dbb7	-0.15025221
10	0x3f5733bc	0.84063315
11	0x3e6eb1ad	0.23309965
12	0x3ea479de	0.32124227
13	0x3e8dfdb8	0.27732635
14	0xbe9dd5c7	-0.30827162
15	0x3e2e3b7f	0.17014883
16	0xbe77735a	-0.24165097
17	0x3e490d8b	0.19634072
18	0x3d0882e8	0.033327967
19	0x3e854994	0.26032698
20	0xbea47778	-0.32122397
21	0xbe65c327	-0.22437726
22	0x3e51323f	0.20429324
23	0x3e833c23	0.25631818
24	0x3f5dd1c9	0.8664823
25	0x3ec8b94e	0.39203876
26	0xbecffb50	-0.40621424
27	0xbb96bcbb	-0.004600135
28	0x3eba5218	0.36390758
29	0xbf07020d	-0.52737504
30	0xbee01dee	-0.43772835
31	0xbe421169	-0.18951954
32	0x3ecd300f	0.40075728
33	0xbe625aa3	-0.22104888
34	0xbe065c54	-0.13121158
35	0x3e28f377	0.16499124
36	0x3f362011	0.7114268
37	0xbbda47c4	-0.006661387
38	0xbd070657	-0.03296503
39	0xbf04a6d2	-0.5181705
40	0x3e05e3c8	0.13075173
41	0xbf258463	-0.6465513
42	0xbebfa41c	-0.37429893
43	0x3e09d26c	0.13459176
44	0x3d4f364e	0.0505889
45	0x3de07e5f	0.109616034
46	0xbf3e9fcc	-0.7446258
47	0xbf1df949	-0.61708504
48	0x3ee59a3c	0.44844234
49	0x3f13b7c9	0.5770231
50	0x3f689189	0.9084707
51	0x3eebec5d	0.46078768
52	0x3f17621c	0.5913408
53	0x3ec3babf	0.38228413
54	0x3ed88ff7	0.42297336
55	0x3dd5fd55	0.1044871
56	0xbf635359	-0.88799053
57	0xbe99fa1a	-0.30073625
58	0x3e897ff9	0.26855448
59	0xbdd1776f	-0.10227858
60	0xbd8be558	-0.06830853
61	0x3dea6fcc	0.11447105
62	0x3e46d825	0.1941839
63	0xbe61affc	-0.22039789
64	0xbd8ac0e0	-0.06775069
65	0xbe1b8558	-0.15187585
66	0x3e8f2e4e	0.27965015
67	0xbe20ead6	-0.15714583
68	0xbe53772a	-0.20650926
69	0xbe01a979	-0.12662305
70	0xbdc6e48c	-0.097115606
71	0xbdac7a1b	-0.08421727
72	0xbf11597e	-0.5677718
73	0x3e97f283	0.2967721
74	0x3f082a68	0.53189707
75	0xbd4f2f4d	-0.05058222
76	0xbe4a6588	-0.19765294
77	0x3e03a7ba	0.12856951
78	0x3ef451b0	0.47718573
79	0xbea7b506	-0.32755297
80	0x3e11ab4b	0.142255
81	0x3e279a28	0.163674
82	0xbf731131	-0.94948107
83	0xbe36f394	-0.17866355
84	0xbe900af0	-0.28133345
85	0x3f18137e	0.5940474
86	0x3f22bc32	0.63568413
87	0xbeca0538	-0.39457107
88	0xbebf251c	-0.37333
89	0x3e7e9672	0.24862078
90	0x3ecac8dc	0.3960637
91	0x3df405ff	0.11915206
92	0xbe02477c	-0.12722582
93	0xbe755589	-0.2395841
94	0x3d77e7b7	0.060523715
95	0xbeb4b2c6	-0.35292643
96	0xbe80f49f	-0.2518663
97	0x3ea87ce8	0.32907796
98	0x3f1a1e8b	0.60202855
99	0x3c9a3a68	0.018826678
100	0x3e7ae3e3	0.24500994
101	0x3e08a05b	0.13342421
102	0xbe35d998	-0.17758787
103	0xbda8b380	-0.08237362
104	0x3f6236a5	0.8836463
105	0x3f172436	0.5903963
106	0x3e1385f7	0.14406572
107	0xbd42fc81	-0.047604088
108	0xbf193898	-0.5985198
109	0xbf0e9b7a	-0.5570599
110	0xbe931dfc	-0.28733814
111	0xbedb9dad	-0.42893735
112	0xbef19c82	-0.47189718
113	0x3d105eb9	0.035246585
114	0x3f7c02da	0.9844185
115	0x3f1314c8	0.57453585
116	0xbbb32b92	-0.0054678405
117	0xbe1a77b6	-0.15084729
118	0x3e9f12eb	0.3106912
119	0xbd0b8801	-0.03406525
120	0xbe28c663	-0.16481929
121	0x3e921aba	0.28536016
122	0x3ec7c7d4	0.39019644
123	0xbed67788	-0.4188807
124	0xbe0ec1e2	-0.13941148
125	0xbda8e4af	-0.08246743
126	0xbf506127	-0.8139824
127	0xbed32158	-0.41236377
128	0x3eed7108	0.46375299
129	0xbe11251e	-0.14174315
130	0x3eb47af3	0.35250053
131	0x3cd33335	0.025781253
132	0x3e5be379	0.21473493
133	0xbed46667	-0.41484377
134	0xbe4fd6da	-0.20296803
135	0x3ed52f9c	0.41637886
136	0x3e146c55	0.1449445
137	0x3c06fc5b	0.008238877
138	0x3f125304	0.5715792
139	0x3ef419b1	0.4767585
140	0xbe64eb84	-0.22355467
141	0x3e9bfb00	0.30464935
142	0xbf3c7a60	-0.7362423
143	0xbe6a31b9	-0.2287053
144	0xbe9be929	-0.30451325
145	0xbed43f57	-0.41454574
146	0x3eba1229	0.3634198
147	0x3f00b15b	0.5027062
148	0x3e87a1da	0.2649067
149	0xbe52cbcd	-0.20585556
150	0xbe851e55	-0.25999704
151	0x3eac3851	0.33636716
152	0x3e86be0a	0.26316863
153	0x3ebb99da	0.36640817
154	0x3e09c11d	0.13452573
155	0x3eacdd21	0.33762458
156	0x3e631b7d	0.22178455
157	0x3ec0fd45	0.3769323
158	0x3f8cd81d	1.1003453
159	0x3eabf394	0.33584273
160	0x3f3e8ee1	0.74436766
161	0x3eb20f2a	0.34777194
162	0xbc32617d	-0.010887501
163	0x3cc5f167	0.024162961
164	0xbc5e4f8a	-0.013568768
165	0xbeffd1a2	-0.49964625
166	0xbf53f2c3	-0.827923
167	0xbea48406	-0.32131976
168	0x3e03c26e	0.12867138
169	0xbd70c337	-0.05877992
170	0xbe843375	-0.2582051
171	0xbe820c72	-0.2540012
172	0x3f0b352f	0.54378027
173	0x3eeb8800	0.46002197
174	0x3eca2e5e	0.394885
175	0x3ede1596	0.43375844
176	0x3d7271dd	0.05919062
177	0xbea4fdf9	-0.32225016
178	0xbf693ae7	-0.911055
179	0xbe014181	-0.12622644
180	0xbf1bc34e	-0.60844886
181	0x3ec734f6	0.38907593
182	0x3e8a889e	0.27057356
183	0x3e75174d	0.2393467
184	0xbea07589	-0.31339672
185	0xbdc9cec3	-0.0985389
186	0x3dbf4e17	0.09341066
187	0xbdf5c2dd	-0.12000058
188	0x3f211010	0.62915134
189	0xbe92c7a0	-0.28667927
190	0x3ca81488	0.020517603
191	0xbe8e4321	-0.2778559
192	0xbe45960c	-0.1929552
193	0xbda97cdb	-0.082757674
194	0x3f2216e0	0.63316154
195	0x3ed03622	0.406663
196	0x3e80bf54	0.25145972
197	0x3ce5b3dd	0.028039867
198	0xbdb41d79	-0.08794684
199	0x3eb24fb6	0.3482644
200	0xbe3ec957	-0.18631493
201	0x3eb3eae5	0.35140148
202	0xbd20999e	-0.039209
203	0x3ecb7c9f	0.39743516
204	0x3f046ce0	0.5172863
205	0x3f0f1171	0.5588599
206	0x3f4e1188	0.804955
207	0x3e1319c0	0.14365292
208	0xbe6652e0	-0.22492552
209	0xbc58b96e	-0.013227804
210	0x3e819b5e	0.25313848
211	0xbdbbe903	-0.09175303
212	0x3e8241df	0.2544088
213	0x3e8575a8	0.26066327
214	0xbf68d359	-0.9094749
215	0xbf083367	-0.53203434
216	0xbf4fec53	-0.8121998
217	0x3d93dcb8	0.07219833
218	0x3ed8100c	0.42199743
219	0x3dd01446	0.10160117
220	0xbf1e97f7	-0.6195063
221	0xbeb5ec2b	-0.35531744
222	0x3eea0355	0.45705667
223	0x3ea3318b	0.31873736
224	0xbeb6e75b	-0.35723385
225	0x3ee69a50	0.45039606
226	0x3eb94426	0.36184806
227	0x3f0071a1	0.50173384
228	0xbe2423c4	-0.16029269
229	0xbf05f363	-0.52324504
230	0xbe0651d0	-0.13117146
231	0xbee2c6b8	-0.44292235
232	0xbdeb390b	-0.114854895
233	0x3e61e776	0.22060952
234	0xbed62317	-0.41823646
235	0xbf245ddf	-0.64205736
236	0x3edf4685	0.4360849
237	0xbe3844d5	-0.17995007
238	0x3e5c769f	0.21529625
239	0xbe882d03	-0.2659684
240	0xbe6f1bf9	-0.23350514
241	0xbf0ac8cb	-0.54212636
242	0xbf0144e6	-0.50495756
243	0xbed6440f	-0.418488
244	0xbd418e18	-0.04725465
245	0xbe9d8eb2	-0.3077293
246	0xbddf4f76	-0.10903828
247	0x3d1eaff9	0.03874204
248	0x3e0b967c	0.13631624
249	0xbf1d016c	-0.61330295
250	0xbd996bf3	-0.07491293
251	0xbe883137	-0.26600048
252	0x3e8af631	0.27140954
253	0x3eac3d57	0.3364055
254	0x3bdd0b90	0.006745763
255	0x3e201368	0.15632403

layer1.bias f4 [64]
0	0x3ee98e6a	0.45616466
1	0x3d97c0fb	0.07409855
2	0xbebd9ccf	-0.37033698
3	0x3ec27b57	0.37984726
4	0x3ed3b140	0.4134617
5	0xbe72fa8e	-0.23728392
6	0xbe291ee6	-0.16515693
7	0x3e29bf37	0.16576849
8	0x3e600a11	0.2187884
9	0xbe5f56eb	-0.218105
10	0x3d79dbc3	0.061000597
11	0xbe373465	-0.1789108
12	0xbd6924fb	-0.056920033
13	0x3c884324	0.016633578
14	0xbda66084	-0.08123878
15	0x3f04240a	0.5161749
16	0x3e8acfcb	0.27111658
17	0x3f1551a5	0.58327705
18	0x3f20b99e	0.6278323
19	0x3e74b1d7	0.23895966
20	0xbe261849	-0.16220202
21	0x3efd4be9	0.49471977
22	0x3e31c332	0.17359617
23	0x3f0a1347	0.53935665
24	0x3d6faec4	0.05851628
25	0x3f166b0a	0.5875708
26	0x3e82e66b	0.2556642
27	0x3c8efde2	0.017455045
28	0xbe9c09a1	-0.30476096
29	0x3ef61272	0.48060948
30	0x3e2e6e6a	0.17034307
31	0x3ea9a60f	0.33134505
32	0x3ead17c9	0.3380721
33	0x3d99ce96	0.07510106
34	0xbe9cde16	-0.30638188
35	0xbde26d72	-0.11056031
36	0xbde5dfe7	-0.112243466
37	0x3eee8fd3	0.46594104
38	0x3dfe2d13	0.12410941
39	0x3d397ae7	0.045283224
40	0xbd1d9397	-0.03847083
41	0x3e8d6c4f	0.27621695
42	0x3f0afc07	0.54290813
43	0x3f07ab3d	0.52995664
44	0x3e63dbb0	0.22251773
45	0x3e789a49	0.24277605
46	0x3f13daae	0.57755554
47	0x3eb0991f	0.34491822
48	0x3d313deb	0.04327194
49	0x3efffd75	0.4999806
50	0x3ee516db	0.44744
51	0x3d9a95de	0.07548116
52	0x3eb332af	0.34999606
53	0x3e2d8ee1	0.16949035
54	0xbdad6b65	-0.084677495
55	0xbcf73e31	-0.030181022
56	0x3f1ebf74	0.62010884
57	0x3ea894ea	0.32926112
58	0xbebee500	-0.37284088
59	0x3ee00d0a	0.43759948
60	0x3ea86782	0.3289147
61	0x3ec1f6ba	0.3788355
62	0x3e2dc726	0.169705
63	0x3eba23a5	0.3635532

layer2.weight f4 [32, 64]
0	0x3e0812cd	0.13288422
1	0xbd188110	-0.03723246
2	0xbe4bc4db	-0.19899313
3	0x3d3beadd	0.04587828
4	0x3e1aeee9	0.151302
5	0xbcfa27e6	-0.030536603
6	0xbddf85e0	-0.109142065
7	0x3d2fd75d	0.042929996
8	0x3cbefd7c	0.02331423
9	0x3ce8831c	0.02838283
10	0x3d8b53a6	0.06803064
11	0xbd7e4b7e	-0.062083714
12	0xbea05cda	-0.3132084
13	0xbc901e2c	-0.017592512
14	0xbe755be8	-0.2396084
15	0xbc2f17e7	-0.010686851
16	0x3e6e58f1	0.23276116
17	0x3e686845	0.22696026
18	0x3cb5a63c	0.022173993
19	0x3dd398e7	0.10331898
20	0xbdad291f	-0.08455109
21	0x3dec3cd1	0.11535037
22	0x3db01a2c	0.08598742
23	0x3e518dab	0.20464198
24	0x3e9bfcb6	0.3046624
25	0x3dc75691	0.09733308
26	0xbda1e9e0	-0.07905936
27	0xbe3e667e	-0.18593785
28	0xbe85ae05	-0.2610933
29	0x3dd86ead	0.10567985
30	0xbca66a1c	-0.020314269
31	0x3d6b8724	0.057501927
32	0x3def0bdb	0.11672183
33	0xbc1560ac	-0.009117287
34	0xbe7cc7c4	-0.2468558
35	0x3c8ef202	0.017449383
36	0x3c31c571	0.010850296
37	0x3d9ec42a	0.07752259
38	0xbc6d6d59	-0.014491403
39	0xbe83ea74	-0.2576481
40	0xbe04db83	-0.12974362
41	0x3d3cdda0	0.046109796
42	0x3d88dd75	0.066828646
43	0x3dd807e0	0.10548377
44	0xbd23887f	-0.039925095
45	0x3d826b71	0.06368149
46	0x3d69079b	0.05689202
47	0x3c63520c	0.013874542
48	0xbcb39081	-0.02191949
49	0x3dbc6121	0.09198213
50	0x3e3b9e34	0.18322068
51	0x3dff1d12	0.124567166
52	0x3e6d9185	0.23200043
53	0xbdd6b9a3	-0.10484626
54	0xbec94ac2	-0.39314848
55	0x3d2e817b	0.04260395
56	0x3e14b398	0.14521635
57	0x3e05f07a	0.13080016
58	0xbe120d1f	-0.14262818
59	0x3e65135f	0.2237067
60	0xbdab57bf	-0.083663456
61	0x3e04cedb	0.12969534
62	0x3d00b526	0.031422757
63	0x3d59c8c6	0.053169988
64	0x3e54390c	0.20724887
65	0xbd1e41ad	-0.038636852
66	0xbe252e6c	-0.1613099
67	0x3db3c42c	0.08777651
68	0x3e03a8d0	0.12857366
69	0xbd807a1a	-0.06273289
70	0xbe324ad9	-0.17411365
71	0x3e0d934f	0.13825725
72	0x3d4b5bf3	0.049648236
73	0xbe9a2feb	-0.30114684
74	0x3c2ebfc2	0.010665836
75	0xbe17b459	-0.14814891
76	0xbea5f9aa	-0.3241704
77	0xbe09c819	-0.13455237
78	0xbe7a3f01	-0.24438097
79	0x3da9c1c3	0.0828891
80	0x3e2971f0	0.1654737
81	0xbc20a38d	-0.009804619
82	0x3e205883	0.15658765
83	0x3e04a0ae	0.1295192
84	0xbe6ffe7f	-0.23436926
85	0x3e26c7f0	0.16287208
86	0x3dfde7bd	0.12397716
87	0x3e0dae01	0.13835908
88	0x3e785da7	0.24254476
89	0x3ce332cd	0.027734185
90	0xbd68727a	-0.0567498
91	0x3cd6be63	0.02621383
92	0xbdb7ef23	-0.089811586
93	0x3dad4ca7	0.08461886
94	0x3d7bce5f	0.061476108
95	0xbe0035c2	-0.12520507
96	0xb898b565	-7.281712e-05
97	0x3b5fdba3	0.0034158013
98	0x3c8f8b43	0.01752246
99	0xbe168dbc	-0.14702505
100	0x3d850133	0.06494369
101	0x3dc1efdc	0.09469578
102	0xbc9f099d	-0.019413764
103	0xbe8ca1ef	-0.27467296
104	0xbe7315f7	-0.23738848
105	0x3cda75ed	0.02666756
106	0xbcfd8fa9	-0.030952292
107	0x3e1698e1	0.14706756
108	0xbd075e30	-0.03304881
109	0x3e23ba12	0.15988949
110	0x3e6d9d50	0.23204541
111	0xbd57f088	-0.052719623
112	0xbcb65984	-0.022259481
113	0x3e230232	0.15918806
114	0x3d14611b	0.03622542
115	0xbc63fecb	-0.013915728
116	0x3e8484c4	0.25882542
117	0xbdf112a1	-0.11771131
118	0xbddbb8b5	-0.107285894
119	0x3e0a5b7e	0.13511464
120	0x3e236833	0.15957718
121	0xbd23219e	-0.03982698
122	0xbe7f1d7f	-0.24913596
123	0xbcfa1d7b	-0.030531636
124	0xbe01db3b	-0.12681286
125	0x3d8b502e	0.068024024
126	0x3da91d5b	0.08257552
127	0xbd81c135	-0.063356794
128	0xbcdeeffc	-0.027214043
129	0x3e7d2578	0.24721324
130	0xbed04312	-0.4067617
131	0x3e15f94c	0.1464588
132	0xbcbff4b0	-0.023432106
133	0xbded237d	-0.115790345
134	0x3e9fd097	0.3121383
135	0x3e1abb0e	0.15110418
136	0x3d79fb2f	0.061030563
137	0x3d5506d7	0.052008476
138	0x3da8cda8	0.08242351
139	0x3e07c399	0.13258208
140	0x3ea15fe6	0.31518477
141	0x3e7b1e14	0.24523193
142	0x3e233964	0.15939862
143	0x3dbed87a	0.093186334
144	0x3cb160fe	0.021652695
145	0x3cd061e7	0.025437308
146	0x3d4f0328	0.05054012
147	0x3d031a53	0.032007527
148	0x3e4ac384	0.19801146
149	0x3df1a8db	0.11799785
150	0xbed2f992	-0.41206032
151	0x3e035a7a	0.12827483
152	0xbe74b18b	-0.23895852
153	0x3e392849	0.18081774
154	0x3e80b219	0.25135878
155	0x3ea307bd	0.3184184
156	0xbe22d934	-0.15903169
157	0xbcc6a12c	-0.024246775
158	0xbc47cf7a	-0.012195462
159	0x3dd42123	0.10357883
160	0x3c23c4a4	0.009995613
161	0x3cd20db2	0.025641296
162	0xbef9702c	-0.48718393
163	0x3e1a249a	0.15053025
164	0xbe2b9579	-0.16756238
165	0x3ce2ec04	0.027700432
166	0x3e09df1a	0.13464013
167	0x3e62666f	0.22109388
168	0x3e7569c2	0.23966125
169	0x3eaa7740	0.33294106
170	0x3c92b374	0.017907836
171	0x3c4f7cdd	0.012664047
172	0x3eb63282	0.3558541
173	0xbeb45574	-0.35221446
174	0xbd5606a6	-0.052252434
175	0x3e6a7409	0.22895826
176	0xbcff51eb	-0.031166991
177	0x3db1e21e	0.086857066
178	0x3cb6f0f3	0.02233169
179	0x3e020889	0.12698568
180	0x3c1121bb	0.00885814
181	0x3e574f73	0.21026401
182	0xbc8d870c	-0.01727631
183	0xbd71e7da	-0.059059
184	0xbe4be237	-0.19910513
185	0x3e381d96	0.17980036
186	0x3e1c33e6	0.15254173
187	0x3e237cbd	0.15965553
188	0x3e822443	0.2541829
189	0x3c782498	0.015145443
190	0x3e33887b	0.17532532
191	0x3e0653af	0.1311786
192	0x3e805350	0.25063562
193	0x3eb0a5ff	0.34501645
194	0xbe8f8ad4	-0.28035605
195	0xbd62d2de	-0.05537688
196	0x3afb3be4	0.0019167629
197	0xbd8f8ae8	-0.07008916
198	0x3ddc34a7	0.1075223
199	0x3ea554bf	0.3229122
200	0xbe1b453e	-0.15163133
201	0xbb6c522b	-0.0036059718
202	0x3e3926cb	0.18081205
203	0x3e11cc4e	0.14238092
204	0xbe1e3f1d	-0.15453763
205	0xbd697f25	-0.05700602
206	0x3e9d099a	0.30671388
207	0x3decc9a6	0.11561899
208	0x3cad64b2	0.02116618
209	0x3e1141c1	0.1418524
210	0xbd3f615a	-0.0467237
211	0xbb4b3d81	-0.0031012
212	0x3e081e9b	0.13292925
213	0xbdf60564	-0.12012747
214	0xbe992fe3	-0.29919347
215	0x3db6980e	0.08915721
216	0xbeab95d0	-0.33512735
217	0x3c7d763c	0.015470084
218	0xbe381cbb	-0.1797971
219	0x3eb42f72	0.35192448
220	0xbe39a85c	-0.1813063
221	0x3dd154a6	0.102212235
222	0x3d49ce94	0.049269274
223	0x3d10f13e	0.035386316
224	0xbe629383	-0.22126584
225	0xbde230be	-0.11044453
226	0xbd9b3bc2	-0.07579757
227	0x3e31d06f	0.17364667
228	0xbc29c9b0	-0.010363027
229	0xbd580263	-0.05273665
230	0xbdeebd2d	-0.11657176
231	0xbe9890fe	-0.2979812
232	0x3d3d044d	0.04614668
233	0x3e6ac31a	0.22925988
234	0x3e2286c1	0.15871717
235	0xbeb070a4	-0.34460938
236	0x3e82559f	0.2545595
237	0xbec396a9	-0.38200882
238	0x3e511dc3	0.2042151
239	0x3a78f154	0.000949641
240	0xbcadb8d3	-0.021206295
241	0xbe358265	-0.17725523
242	0xbe6fcedb	-0.23418753
243	0xbeb77dfa	-0.358383
244	0x3e0057e9	0.12533535
245	0x3e2dc299	0.16968764
246	0x3d94b269	0.072605915
247	0x3e43282c	0.19058293
248	0xbedfc9e6	-0.43708724
249	0x3e848f73	0.25890693
250	0x3dc0ffb6	0.09423773
251	0x3bc5b17b	0.00603312
252	0x3e506812	0.203522
253	0x3e2f860f	0.17140983
254	0x3e2ccf49	0.16875948
255	0xbe82476a	-0.2544511

layer2.bias f4 [32]
0	0x3dca343a	0.09873243
1	0x3df29871	0.11845482
2	0x3c5d6563	0.013512942
3	0x3d4ac645	0.04950549
4	0x3caa3326	0.020776343
5	0x3e4c9a16	0.19980654
6	0xbdc42540	-0.095774174
7	0x3dab4443	0.08362629
8	0x3dc5688e	0.09639083
9	0x3dfb7f74	0.12280169
10	0x3e26f53c	0.16304487
11	0x3da10612	0.07862486
12	0x3d776a62	0.06040419
13	0x3d214df5	0.039380986
14	0xbd1088b6	-0.035286628
15	0x3dfb392f	0.12266766
16	0x3a6ad68e	0.0008958363
17	0x3e705cad	0.23472853
18	0x3d571e34	0.05251904
19	0x3e4046e7	0.18777047
20	0x3ddbc3f1	0.10730732
21	0x3baa45a2	0.005196289
22	0x3e7804ef	0.24220632
23	0x3c83e90c	0.016102336
24	0x3ddccc93	0.10781207
25	0xbd0eaf78	-0.03483531
26	0x3e26b0eb	0.16278426
27	0xbd9f236d	-0.07770429
28	0xbc836899	-0.016041087
29	0x3df35a69	0.11882479
30	0x3d71c5f3	0.05902667
31	0xbd9d5278	-0.07681745

layer3.weight f4 [32, 32]
0	0xbdb5850e	-0.08863269
1	0xbe41b0ff	-0.18915175
2	0x3ebeb6bd	0.37248793
3	0x3e2b0a59	0.16703166
4	0x3d52d3b1	0.051471416
5	0x3e346930	0.17618251
6	0x3c841868	0.016124919
7	0x3d4c49ee	0.049875192
8	0x3e26a181	0.16272546
9	0xbe103c3a	-0.14085475
10	0x3e4c3d2b	0.19945209
11	0x3ceab638	0.028651342
12	0x3e85a1ef	0.26100108
13	0xbd28f85a	-0.04125247
14	0xbee0fd6a	-0.4394334
15	0x3f133129	0.5749689
16	0xbe00857d	-0.12550922
17	0xbb936da9	-0.0044991565
18	0x3de3a988	0.1111632
19	0x3e00d59c	0.12581486
20	0xbdf2049a	-0.11817284
21	0xbe27a14a	-0.1637012
22	0x3e35c0c0	0.1774931
23	0x3db32f15	0.087492146
24	0x3cc33fdf	0.023834167
25	0xbe0fc1f8	-0.14038837
26	0xbe214efc	-0.15752786
27	0x3ee2face	0.44331974
28	0x3d047bbe	0.032344572
29	0x3e0f5c01	0.1399994
30	0xbc0f0189	-0.008728393
31	0x3e2d8eb1	0.16948964
32	0x3e255197	0.16144405
33	0x3d8905af	0.06690537
34	0x3e92ee0d	0.28697243
35	0xbe82f0ad	-0.25574246
36	0xbe347c6b	-0.17625587
37	0x3eaa650d	0.3328022
38	0x3d3af54c	0.04564409
39	0xbc033345	-0.008007829
40	0x3e60af1f	0.21941803
41	0x3df5424d	0.119755365
42	0x3e0bf5a2	0.1366792
43	0xbd910a2a	-0.07082017
44	0x3e7d3b79	0.24729718
45	0xbea722c9	-0.32643726
46	0x3e3bcade	0.18339106
47	0xbe4c66b3	-0.19961052
48	0x3e6899ea	0.22714964
49	0x3bed61d2	0.007244327
50	0xbe299d64	-0.16563946
51	0x3e8324e9	0.25614098
52	0x3e76627c	0.24061006
53	0xbc2e08bb	-0.010622199
54	0x3e243611	0.1603625
55	0x3ea33924	0.31879532
56	0xbc0e8161	-0.0086978385
57	0xbd160271	-0.036623422
58	0xbbb240d4	-0.005439857
59	0x3dcf38f3	0.10118284
60	0x3c1a3b7c	0.009413596
61	0x3e415b8d	0.1888258
62	0x3da1abf9	0.07894129
63	0x3bfe0c20	0.0077529103
64	0x3e10d7d8	0.14144838
65	0x3db5114a	0.08841188
66	0xbe1abd3e	-0.15111253
67	0xbe79d08d	-0.24395962
68	0x3e2e1a67	0.17002259
69	0x3e8db97b	0.27680573
70	0x3ce727c8	0.028217211
71	0xbda809d8	-0.082050025
72	0x3e8f96aa	0.28044635
73	0x3db57e71	0.088620074
74	0x3eab923b	0.33510002
75	0x3c726503	0.014794591
76	0x3e793f5e	0.24340579
77	0xbe8fea32	-0.28108364
78	0x3e64c201	0.22339632
79	0xbf017884	-0.5057452
80	0x3de4d7b2	0.11173953
81	0x3dc04b37	0.09389346
82	0x3d95b80e	0.07310496
83	0x3eaa5699	0.33269194
84	0x3dd35ae8	0.10320073
85	0x3d42e788	0.047584087
86	0x3def9f33	0.11700287
87	0x3eae2964	0.34015954
88	0x3e008234	0.12549669
89	0x3d921dc3	0.07134583
90	0x3e7255f7	0.23665605
91	0xbd3af70e	-0.045645766
92	0x3e6fa028	0.23400939
93	0x3e91df06	0.28490466
94	0x3e76249c	0.24037403
95	0xbdc4b53d	-0.09604881
96	0x3e14f69e	0.14547202
97	0xbdf4f7be	-0.119613156
98	0x3ee364a5	0.44412723
99	0x3e2d0a7d	0.16898532
100	0x3df121a3	0.11773994
101	0x3df8651e	0.121286616
102	0xbc6764e0	-0.014123172
103	0x3e34feee	0.17675373
104	0xbdd70e0e	-0.105007276
105	0x3defe4cd	0.11713562
106	0x3d97a0c1	0.07403708
107	0xbe23478a	-0.15945259
108	0x3e84ea7b	0.25960144
109	0x3e74ff3c	0.23925489
110	0xbf1e22eb	-0.6177203
111	0x3efbc62e	0.49174637
112	0x3e292dcb	0.16521375
113	0x3e5517b9	0.2080983
114	0xbe27df3a	-0.16393748
115	0xbdcdd61c	-0.10050604
116	0xbd96e617	-0.07368105
117	0xbd8bce14	-0.06826416
118	0x3e5a9d07	0.21348964
119	0x3cbda560	0.023150146
120	0x3e652b3a	0.22379771
121	0xbddf5f45	-0.10906843
122	0xbc03e882	-0.00805104
123	0x3e77d45e	0.24202105
124	0xbd2b76e9	-0.04186145
125	0x3dc1a826	0.094559
126	0xbe716eb5	-0.23577388
127	0xbda2fdcc	-0.07958564
128	0x3d91ed40	0.0712533
129	0xbe0be326	-0.13660869
130	0xbe2cbbcb	-0.16868512
131	0xbdd17166	-0.10226707
132	0xbd3163c0	-0.04330802
133	0xbdafdcfe	-0.08587073
134	0x3df512ce	0.11966477
135	0xbc45da20	-0.012075931
136	0x3c832e48	0.01601328
137	0xbcea07b0	-0.028568119
138	0xbdd838e4	-0.10557726
139	0x3d657314	0.05601795
140	0xbd68a1e2	-0.05679501
141	0xbe172194	-0.14758903
142	0x3b139f00	0.0022525191
143	0x3d9c3d3a	0.076288655
144	0xbe207359	-0.15669002
145	0xbdd8fca4	-0.105950624
146	0xbdbdff39	-0.092771955
147	0x3df9784e	0.121811494
148	0xbe0d3140	-0.13788319
149	0xbcd60098	-0.02612333
150	0x3c4d8810	0.012544647
151	0xbd6a48fe	-0.057198517
152	0x3dc5f0ca	0.096650675
153	0xbda0f6a3	-0.07859542
154	0x3e080fab	0.13287227
155	0xbd368028	-0.044555813
156	0xbda4c99d	-0.08046267
157	0xbd405674	-0.046957448
158	0x3d3e0250	0.046388924
159	0x3e21e8e7	0.15811501
160	0x3e0a630b	0.13514344
161	0x3defaa2b	0.11702379
162	0xbdf732d6	-0.12070243
163	0xbeaac579	-0.33353785
164	0x3d11124a	0.035417832
165	0x3dec133a	0.11527105
166	0xbd96328e	-0.07333861
167	0x3d3af897	0.04564723
168	0x3d49387e	0.04912614
169	0x3eae5bcd	0.34054413
170	0x3e1b00c9	0.15137018
171	0x3e60f885	0.21969803
172	0x3e2d3b6e	0.16917202
173	0xbec6f559	-0.3885906
174	0x3def07ee	0.11671434
175	0xbea2bfaa	-0.31786853
176	0x3e98c906	0.2984087
177	0x3e8780e9	0.26465538
178	0x3e5260d7	0.20544754
179	0x3e88f9ec	0.26753175
180	0x3d92d910	0.07170308
181	0x3e6c1536	0.23054966
182	0x3e3c7560	0.1840415
183	0x3de5df75	0.11224262
184	0x3e8f0f98	0.27941585
185	0x3d91ecb8	0.07125229
186	0x3dde736e	0.1086186
187	0xbdf8db7f	-0.121512406
188	0x3dfab829	0.12242157
189	0x3de7b106	0.113130614
190	0x3d067ba1	0.032832745
191	0xbdc6be17	-0.097042255
192	0x3d946c5c	0.072472304
193	0xbe4c9945	-0.19980343
194	0x3ed90aab	0.42390952
195	0x3d0fcc84	0.03510715
196	0x3d6337e3	0.05547322
197	0x3e5e9ba5	0.21739061
198	0xbe0f9f20	-0.14025545
199	0x3e14fc42	0.14549354
200	0x3dd92e58	0.106045425
201	0x3e272741	0.16323568
202	0x3b80828f	0.003921814
203	0xbe56a705	-0.2096215
204	0x3e879146	0.26478022
205	0x3df82950	0.12117255
206	0xbef2c72f	-0.4741759
207	0x3ebcf536	0.3690583
208	0xbcbc9052	-0.023018036
209	0x3e0f8ef7	0.1401938
210	0xbaa68d87	-0.0012706973
211	0x3e782c7a	0.24235716
212	0xbc424fdd	-0.011859861
213	0xbc337b6d	-0.01095472
214	0xbc3a754d	-0.011380506
215	0xbcb5d236	-0.022194963
216	0x3e6c4216	0.23072085
217	0xbd8dc5d2	-0.06922497
218	0xbdbe89e6	-0.09303646
219	0x3ec27c02	0.37985235
220	0xbd8a5e9c	-0.067563266
221	0x3c6ec3e1	0.014573068
222	0xbdf642a9	-0.12024433
223	0x3e11d2db	0.14240591
224	0x3ea1ecca	0.31625968
225	0x3d4d0544	0.05005385
226	0xbe9ad664	-0.30241692
227	0xbed1b9b5	-0.40961996
228	0xbe29cf67	-0.16583024
229	0x3e90ea4a	0.28303748
230	0xbe1b406b	-0.15161292
231	0x3e0753bd	0.13215537
232	0x3e8c59ea	0.2741235
233	0x3e61fab9	0.220683
234	0x3e160630	0.14650798
235	0x3d839863	0.0642555
236	0x3e78ac66	0.24284515
237	0xbdab95ff	-0.08378219
238	0x3ea9eda0	0.33189106
239	0xbedfd0ca	-0.4371398
240	0x3e786a0c	0.24259204
241	0x3e6916b6	0.2276257
242	0x3e845d1d	0.2585229
243	0x3e8c7cbb	0.27438912
244	0x3e5598bd	0.20859046
245	0x3e2fe886	0.17178544
246	0x3eac8711	0.33696797
247	0x3ddd77fb	0.108139
248	0x3e2ff4cf	0.17183231
249	0xbe2396b7	-0.15975462
250	0x3b7bdad5	0.0038429995
251	0xbeb0cc29	-0.34530762
252	0x3ea73d84	0.3266412
253	0x3e259bcc	0.16172713
254	0x3dc26e9e	0.09493755
255	0xbd75a39a	-0.059970476

layer3.bias f4 [32]
0	0xbd5f1df9	-0.054471944
1	0x3d6383a9	0.055545483
2	0xbce537c6	-0.027980696
3	0xbde16b34	-0.110067755
4	0xbda7288e	-0.08162032
5	0x3e47e225	0.19519861
6	0x3e65f88c	0.22458094
7	0x3db358a3	0.087571405
8	0x3c409c42	0.011756005
9	0x3d2758cd	0.04085617
10	0x3db8fb1d	0.09032271
11	0x3e5d2586	0.21596345
12	0x3e40b762	0.18819955
13	0xbd9cc788	-0.07655245
14	0x3d7c68bc	0.06162332
15	0x3dff9adb	0.12480708
16	0x3e7b39ce	0.2453377
17	0xbd7b51f4	-0.061357453
18	0x3e38bc08	0.18040478
19	0x3e37df53	0.17956285
20	0xbb1e5154	-0.0024157362
21	0x3df8342a	0.121193245
22	0x3e79fe67	0.24413453
23	0x3dcab0c6	0.09896998
24	0xbd694ad7	-0.05695614
25	0x3e3e5d93	0.18590383
26	0x3d715905	0.058922786
27	0xbdb1c38f	-0.08679878
28	0x3e6deae0	0.23234129
29	0xbbcb8247	-0.0062105986
30	0x3db50d5f	0.08840441
31	0xbdd0beb1	-0.101926215

layer4.weight f4 [24, 32]
0	0x3d3ac98d	0.04560237
1	0x3ea12050	0.31469965
2	0x3daf0a87	0.0854693
3	0x3dd4d4c2	0.10392143
4	0x3d05d62c	0.032674953
5	0x3dd7cb5e	0.10536836
6	0x3e5562dd	0.20838495
7	0x3e4a130c	0.19733828
8	0x3e63ad30	0.22234035
9	0xbc29a451	-0.0103541175
10	0x3e3151f8	0.17316425
11	0xbbef68a5	-0.007306176
12	0x3e537f34	0.20653993
13	0x3dec6a84	0.11543754
14	0x3b831276	0.0040000034
15	0x3e0b3cc3	0.13597398
16	0x3e8283a5	0.25491062
17	0x3e181321	0.14851047
18	0x3e18592e	0.1487777
19	0x3eb2fe2b	0.3495954
20	0xbf0d5b9c	-0.5521791
21	0x3ed68e78	0.4190557
22	0x3e668801	0.22512819
23	0x3dcba6b9	0.09943909
24	0x3e844c48	0.25839448
25	0xbed00e1a	-0.4063576
26	0xbf033ad3	-0.51261634
27	0x3e663218	0.22480047
28	0xbe85a9f2	-0.2610622
29	0xbe9fa2e7	-0.31178972
30	0x3e0b72b7	0.13617979
31	0x3c4f8f74	0.012668479
32	0xbe9c15fc	-0.30485523
33	0x3c6d444e	0.014481617
34	0x3dc5f23e	0.09665345
35	0xbeac23e0	-0.3362112
36	0x3e19b89b	0.15011828
37	0x3e8a19e9	0.26972893
38	0xbe15e2ef	-0.1463735
39	0x3e38e1ab	0.18054835
40	0x3e8bd88d	0.27313653
41	0x3e2e244f	0.17006038
42	0x3dd5c14e	0.104372606
43	0x3e1a0ce8	0.15043986
44	0x3e98b424	0.29824936
45	0xbebbbee6	-0.3666908
46	0xbe47d85d	-0.1951613
47	0x3de3cc0f	0.111229055
48	0x3e3ac7d9	0.18240298
49	0x3ed2eac7	0.41194746
50	0x3d991f80	0.07476711
51	0x3e92afdc	0.28649795
52	0xbe558f17	-0.20855366
53	0x3e741918	0.23837698
54	0xbc8bc1a3	-0.017060107
55	0x3d4389a2	0.04773868
56	0x3e9b0aa7	0.30281565
57	0xbe2eaa2a	-0.170571
58	0xbe8c0296	-0.27345723
59	0x3eb58362	0.354518
60	0xbf0b8766	-0.54503477
61	0xbd0f50b6	-0.03498908
62	0x3e8ed909	0.2789996
63	0xbe0e9d1f	-0.13927124
64	0x3d5d336a	0.05400411
65	0xbe89b944	-0.2689916
66	0xbe62d5e5	-0.22151907
67	0xbdebd865	-0.11515883
68	0xbccfccc0	-0.025366187
69	0xbe009c8c	-0.12559718
70	0xbd8a7614	-0.06760803
71	0xbcb4541f	-0.022012768
72	0xbcc08799	-0.023502158
73	0x3d3429c5	0.043985147
74	0xbde66ac5	-0.112508334
75	0xbcd598ad	-0.026073778
76	0x3d91d9fd	0.07121656
77	0xbea4cba9	-0.3218663
78	0xbe5c5e10	-0.21520257
79	0x3d72a545	0.059239645
80	0xbceff6ec	-0.029292546
81	0xbd903c17	-0.07042711
82	0xbe03dc7a	-0.12877074
83	0x3b7e3bfc	0.0038793078
84	0x3e922eeb	0.2855142
85	0xbc79b834	-0.015241671
86	0xbd0d83d4	-0.03454955
87	0x3e2d91c9	0.16950144
88	0x3e244bc6	0.1604453
89	0x3d734a26	0.059396885
90	0x3e3ec864	0.1863113
91	0xbde1173f	-0.10990762
92	0x3ea6c3ed	0.32571355
93	0x3e08013f	0.13281725
94	0xbd269f5c	-0.04067932
95	0xbe627853	-0.22116213
96	0xbe25bcb4	-0.16185266
97	0x3e0a9696	0.13534006
98	0x3e3ebf96	0.18627772
99	0xbea21aec	-0.31661165
100	0xbdb30594	-0.08741298
101	0x3e795f6a	0.24352804
102	0xbe98b550	-0.2982583
103	0x3e94ed60	0.29087353
104	0x3e6dbaec	0.23215836
105	0x3e0cc53a	0.13747111
106	0x3eb474be	0.35245317
107	0x3ea0a11c	0.31372917
108	0x3e56b044	0.20965677
109	0xbe8ea494	-0.27859938
110	0xbd87bb2d	-0.06627498
111	0x3ea5b285	0.32362762
112	0x3e612962	0.21988443
113	0x3ed1c13b	0.40967736
114	0x3e675e4e	0.22594568
115	0x3df326d1	0.11872638
116	0xbe952319	-0.2912834
117	0x3eb055e1	0.3444052
118	0x3e1d999e	0.15390632
119	0x3e99d580	0.300457
120	0x3ea8f32c	0.32998025
121	0xbea2e729	-0.31816986
122	0xbf1edb9e	-0.6205386
123	0x3dfcaeee	0.12338053
124	0xbeebe5ee	-0.4607386
125	0xbe4e94ae	-0.20173904
126	0x3e39510b	0.18097322
127	0xbe941b0e	-0.2892689
128	0x3ef61c70	0.4806857
129	0x3e06d573	0.13167362
130	0x3e1c7774	0.15279943
131	0x3f030540	0.51179886
132	0x3cc2e018	0.023788497
133	0x3e64582f	0.22299264
134	0x3e88c472	0.26712376
135	0x3e28ad84	0.16472441
136	0x3d341e3d	0.04397415
137	0xbd8faae7	-0.07015019
138	0xbd56ad6b	-0.052411478
139	0x3cd5e0da	0.026108194
140	0x3dd7a86c	0.10530171
141	0x3e2ac3fa	0.16676322
142	0x3ef87d9e	0.48533338
143	0xbe86b720	-0.26311588
144	0xbc6a890f	-0.014314904
145	0xbe61ef30	-0.22063899
146	0x3e73c9e0	0.23807478
147	0x3e4721dc	0.1944651
148	0xbd00070d	-0.031256724
149	0xbe1bf488	-0.1523
150	0x3e8a7d81	0.27048877
151	0xbcb68436	-0.02227984
152	0xbdd801fe	-0.10547255
153	0xbd9c3130	-0.07626569
154	0x3ec9d2db	0.39418682
155	0xbe080027	-0.13281308
156	0x3ee42654	0.44560492
157	0xbdcc2dbf	-0.09969663
158	0x3e279733	0.16366272
159	0xbe40fa00	-0.18845367
160	0xbdfedc2c	-0.12444338
161	0x3c847b61	0.016172113
162	0xbe27ab3c	-0.16373914
163	0x3d123928	0.03569904
164	0xbe10399a	-0.14084473
165	0xbe1c127a	-0.15241423
166	0xbe00f06f	-0.12591718
167	0xbda58b06	-0.08083157
168	0x3d472b98	0.04862556
169	0x3dfcaff1	0.12338246
170	0x3d31cb77	0.04340693
171	0xbdd832a8	-0.10556537
172	0xbdd88fa8	-0.10574275
173	0x3db65289	0.08902461
174	0x3d70e0bf	0.058808085
175	0xbcdf9eb0	-0.027297348
176	0xbe03ad8c	-0.12859172
177	0x3e18f69b	0.14937823
178	0xbe0c6976	-0.13712105
179	0xbe2e2425	-0.17005976
180	0x3cbdf357	0.023187323
181	0xbd1e6fdc	-0.038680896
182	0xbe1e9f41	-0.15490438
183	0xbcbfb4d3	-0.023401653
184	0x3e2a677d	0.1664104
185	0x3e095f09	0.1341516
186	0x3df7d096	0.121003315
187	0xbc03d300	-0.008045912
188	0xbe090907	-0.1338235
189	0xbcf43557	-0.02981059
190	0xbd27e113	-0.040986132
191	0xbc9c1934	-0.019054987
192	0xbe78b38a	-0.24287239
193	0x3e8a07b8	0.26959014
194	0x3e901718	0.2814262
195	0xbe7a243a	-0.24427882
196	0x3dcb1de6	0.09917812
197	0x3e39326f	0.18085645
198	0xbd096a73	-0.033548784
199	0x3e99d0a0	0.3004198
200	0x3e5f6d8f	0.21819137
201	0x3e9e5ef8	0.3093183
202	0x3dbd1335	0.09232179
203	0x3e5745d0	0.21022725
204	0x3dcaa159	0.09894056
205	0xbcbf009b	-0.023315718
206	0xbd95ab86	-0.07308106
207	0x3eb93f98	0.3618133
208	0x3dfc12bb	0.1230826
209	0x3d80cdb2	0.06289233
210	0x3e3dcb6d	0.18534632
211	0x3e252262	0.16126397
212	0xbea7be74	-0.32762492
213	0x3e50d113	0.20392255
214	0x3b16dfa0	0.0023021474
215	0x3dfad121	0.122469194
216	0x3e397faf	0.18115114
217	0xbec5a270	-0.38600492
218	0xbf159bc3	-0.584408
219	0x3dcaf7b8	0.0991053
220	0xbe77f25c	-0.24213547
221	0xbea8fd19	-0.33005598
222	0x3da71501	0.08158303
223	0xbd908c50	-0.070580125
224	0xbdcd5a12	-0.10026945
225	0xbe12708e	-0.14300749
226	0x3d120965	0.03565349
227	0xbedaae09	-0.42710903
228	0x3cabd070	0.020973414
229	0x3d6bdef5	0.057585675
230	0xbe3bc69a	-0.18337479
231	0x3e1fd24f	0.1560757
232	0x3e723e69	0.2365662
233	0x3c91c4c0	0.017794013
234	0x3e4afc06	0.19822702
235	0x3ea14113	0.3149496
236	0x3e93317f	0.287487
237	0xbeb7a8b8	-0.3587091
238	0xbe267063	-0.1625381
239	0x3e8ba54d	0.27274552
240	0x3e95be9a	0.2924698
241	0x3e1f3db6	0.15550885
242	0x3d4c43b7	0.049869265
243	0x3e4665d8	0.19374788
244	0x3e9d991c	0.30780876
245	0x3ea46f3d	0.32116118
246	0x3e8b0130	0.27149343
247	0x3da837df	0.082137816
248	0x3e743799	0.23849334
249	0x3e823dce	0.25437778
250	0x3d6fc009	0.05853275
251	0x3e5a1789	0.2129804
252	0xbdd286e6	-0.10279636
253	0x3d7ef37b	0.06224392
254	0x3e04a067	0.12951814
255	0x3ecb73b4	0.39736712

layer4.bias f4 [24]
0	0x3dcb1ea5	0.09917954
1	0x3cda3422	0.026636187
2	0x3d1a2514	0.037633017
3	0x3d5a7188	0.053330928
4	0x3e2c1909	0.16806425
5	0xbe044369	-0.1291634
6	0x3e681692	0.2266486
7	0x3dc0def3	0.09417524
8	0x3e1d2bde	0.15348765
9	0x3e415651	0.18880583
10	0x3e2a23ce	0.16615221
11	0xbdbf2866	-0.09333877
12	0x3ea6a76b	0.32549605
13	0x3db93304	0.090429336
14	0x3e86ff20	0.2636652
15	0x3e65c182	0.22437099
16	0x3e132398	0.14369047
17	0x3e254ca8	0.16142523
18	0x3e332fbd	0.1749868
19	0x3e879cff	0.26486966
20	0x3e3e3bbf	0.18577479
21	0xbd7021e6	-0.058626078
22	0x3db588a2	0.08863951
23	0x3d00c379	0.031436417

layer5.weight f4 [24, 24]
0	0x3e8dbe42	0.27684218
1	0x3e96ec93	0.29477367
2	0xbeafe8c9	-0.34357288
3	0xbccf317f	-0.025292156
4	0x3e478e9d	0.19487996
5	0x3d4ea708	0.050452262
6	0x3eaf72c6	0.34267253
7	0xbdcaaaca	-0.09895857
8	0x3d19d895	0.037560064
9	0x3e0f0f0d	0.13970585
10	0x3bdd40f3	0.0067521273
11	0xbdef58ed	-0.11686883
12	0x3eab59c6	0.3346693
13	0xbe9c5eb5	-0.30541006
14	0x3eb6e19b	0.35718998
15	0x3e64841a	0.22316018
16	0xbd53c4e3	-0.051701438
17	0x3e14d754	0.14535266
18	0xbe65971f	-0.2242093
19	0xbee62e44	-0.44957173
20	0xbe97a947	-0.29621336
21	0x3e1c8ada	0.15287343
22	0xbcd3b2b8	-0.025842056
23	0xbec92040	-0.39282417
24	0x3c241d40	0.010016739
25	0x3e2ff4a4	0.17183167
26	0xbdb3853a	-0.08765645
27	0x3e4034ec	0.18770188
28	0xbd125544	-0.035725847
29	0x3e1c7fae	0.15283081
30	0xbe1fdda0	-0.15611887
31	0xbe2e4ffd	-0.170227
32	0xbda80f94	-0.08206096
33	0x3cc1bb98	0.023649022
34	0xbc69b250	-0.014263704
35	0xbdbd0895	-0.092301525
36	0xbd619fa4	-0.055083886
37	0xbe0d873f	-0.13821124
38	0xbe27694c	-0.16348761
39	0x3def1f88	0.11675936
40	0xbd9296e2	-0.07157685
41	0xbe16ed21	-0.14738895
42	0x3de8931c	0.11356184
43	0xbda9f9a5	-0.08299569
44	0x3d870ac4	0.0659385
45	0x3d91523c	0.07095763
46	0xbdecdf64	-0.11566046
47	0xbdd62f0d	-0.10458193
48	0x3e5e518b	0.21710794
49	0x3e96930b	0.2940906
50	0xbe067281	-0.13129617
51	0x3defb2fa	0.11704059
52	0xbe0bcd7a	-0.13652602
53	0x3e3addd8	0.18248689
54	0x3e751646	0.23934278
55	0x3e3e02f8	0.1855582
56	0x3e7c3c18	0.24632299
57	0x3db546c5	0.08851389
58	0xbcb6ef23	-0.022330826
59	0xbe8dee73	-0.27720985
60	0x3e87f9e2	0.26557833
61	0x3e07b57a	0.13252822
62	0x3d9638fc	0.07335088
63	0x3eb12c0c	0.34603918
64	0x3e95748b	0.29190478
65	0x3eaccfe6	0.33752364
66	0xbe9a8baa	-0.3018468
67	0xbf1e6832	-0.6187774
68	0xbe7c0af1	-0.24613549
69	0xbd8cb432	-0.06870307
70	0xbdf2d01e	-0.118561015
71	0xbeac0fa9	-0.33605698
72	0x3e4e3d6c	0.20140618
73	0x3e945cd9	0.28977087
74	0x3cd0e03e	0.025497552
75	0x3ec9f623	0.394456
76	0xbdd79925	-0.10527257
77	0xbe2f8ee4	-0.17144352
78	0x3e83d92f	0.25751635
79	0x3e5f8c66	0.21830902
80	0x39e3f68c	0.00043480506
81	0x3cced302	0.0252471
82	0x3ddfb7ef	0.109237544
83	0xbe402432	-0.18763807
84	0x3ca0021f	0.019532261
85	0xbd4e51bd	-0.05037092
86	0x3ea138ce	0.3148865
87	0x3ea7cb5b	0.32772335
88	0x3e4224f1	0.18959405
89	0x3eb56479	0.35428217
90	0xbf2700a5	-0.6523536
91	0xbf0edc29	-0.5580469
92	0xbe10c359	-0.14137019
93	0x3dec69cc	0.11543617
94	0x3d8b2546	0.06794219
95	0xbf08baf3	-0.5341026
96	0x3b542a8a	0.0032373988
97	0xbe0ed39e	-0.13947913
98	0x3d41738d	0.04722934
99	0xbdc82d89	-0.0977431
100	0xbccef293	-0.025262153
101	0xbdf9ce66	-0.121975705
102	0xbd420e0c	-0.047376677
103	0xbdc0163b	-0.0937924
104	0xbe0a99bd	-0.13535209
105	0x3d272b92	0.040813036
106	0xbdbd3e94	-0.092404515
107	0xbc014bc0	-0.007891595
108	0xbdd1f64c	-0.102520555
109	0x3d3178a0	0.043327928
110	0xbe19abac	-0.15006894
111	0x3e130d24	0.14360482
112	0xbe0b411f	-0.1359906
113	0xbcc12300	-0.02357626
114	0xbe111338	-0.14167488
115	0x3d12940b	0.035785716
116	0x3ce80698	0.028323457
117	0xbcd2fc10	-0.025754958
118	0x3dc25098	0.09488028
119	0x3e0c8bcc	0.13725203
120	0xbe4bf3d8	-0.19917238
121	0x3de328dc	0.11091778
122	0x3d900c58	0.070336044
123	0x3dc0d740	0.09416056
124	0xbd4349ac	-0.04767768
125	0x3d12818c	0.035768077
126	0xbe1d2a89	-0.15348257
127	0x3ddf416c	0.1090115
128	0xbe0439d0	-0.12912679
129	0x3e0a4cfa	0.13505927
130	0xbe502697	-0.20327221
131	0xbd2d7ec4	-0.04235722
132	0x3e118956	0.14212546
133	0xbd9acbd6	-0.0755841
134	0xbe23642c	-0.15956181
135	0x3dc3aa84	0.09554008
136	0x3c0589d0	0.008150533
137	0xbc6fdb50	-0.0146396905
138	0xbd6894c0	-0.056782484
139	0x3e15daba	0.14634219
140	0x3dada940	0.084795475
141	0x3d336f84	0.04380752
142	0xbd40ebb8	-0.0470998
143	0xbe44e727	-0.19228803
144	0x3ed9338b	0.42422137
145	0x3e89c9c1	0.2691174
146	0xbeb2b7f4	-0.3490597
147	0x3e3cd32a	0.18439928
148	0x3e9148c6	0.28375834
149	0xbd72fe0c	-0.05932431
150	0x3edb7836	0.4286515
151	0x3d9c151f	0.07621216
152	0x3eb736f2	0.35784107
153	0x3e9180dd	0.28418627
154	0xbe9bfe6c	-0.30467546
155	0xbc992a1f	-0.018696843
156	0x3e80dda4	0.25169098
157	0xbe9b3c67	-0.3031952
158	0x3e6a06a7	0.228541
159	0x3e76f816	0.24118075
160	0x3c918565	0.017763803
161	0x3dfdb0e3	0.12387254
162	0xbefb0685	-0.49028412
163	0xbe988ae5	-0.29793468
164	0xbec56e88	-0.3856089
165	0xbe138b79	-0.14408673
166	0xbe0794a2	-0.13240293
167	0xbe8b2349	-0.27175358
168	0xbdc9fa3b	-0.09862181
169	0x3dd5f974	0.1044797
170	0xbe4bcf23	-0.19903235
171	0xbe1d9910	-0.1539042
172	0xbc915648	-0.017741337
173	0x3c3c21e0	0.011482686
174	0xbd8c11c0	-0.06839323
175	0xbdec9538	-0.11551899
176	0xbe1ee8e9	-0.15518536
177	0xbb2ed580	-0.002667755
178	0xbe1792b8	-0.14802063
179	0xbe338c1a	-0.17533913
180	0xbde92dac	-0.11385664
181	0xbe0144c2	-0.12623885
182	0x3d15e90c	0.036599204
183	0x3e0749f8	0.1321181
184	0x3da2e3e4	0.07953623
185	0x3dbd67f0	0.0924834
186	0x3e3e18e2	0.1856418
187	0xbcfe95a0	-0.031077206
188	0xbd664c98	-0.05622539
189	0x3cb2d658	0.021830723
190	0x3d5ce3a8	0.053928047
191	0xbdde29e0	-0.10847831
192	0x3d073507	0.033009555
193	0xbecb1de8	-0.39671254
194	0x3d12e08f	0.035858687
195	0xbea56672	-0.32304722
196	0x3e5a23de	0.21302745
197	0x3e1b2d81	0.15154077
198	0xbde6477a	-0.11244102
199	0xbdc0fd72	-0.09423341
200	0x3e1bfb45	0.1523257
201	0x3e607e41	0.21923162
202	0xbceee87b	-0.02916359
203	0xbe39e9be	-0.18155572
204	0x3deb8877	0.11500638
205	0x3e247355	0.1605962
206	0x3d1e55d2	0.038656063
207	0xbe3c287f	-0.18374823
208	0xbdebe53f	-0.115183346
209	0xbe624e32	-0.22100142
210	0x3e2daba4	0.16960007
211	0x3e1bc5bd	0.1521215
212	0xbebd72e8	-0.3700173
213	0x3d580538	0.052739352
214	0x3ce5ce68	0.028052524
215	0x3ea47762	0.32122332
216	0x3d598155	0.053101856
217	0x3eac4acf	0.33650824
218	0xbc08ba4f	-0.008345201
219	0x3d05520e	0.032548957
220	0xbe23d216	-0.1599811
221	0x3e203d26	0.15648326
222	0x3eabc3a8	0.3354771
223	0x3ed84a2f	0.42244098
224	0x3e9c2137	0.3049409
225	0x3e11da88	0.1424352
226	0x3ef43f0e	0.47704357
227	0xbe6829c9	-0.2267219
228	0x3dd6d7a7	0.10490351
229	0x3eaf2e92	0.34215218
230	0x3ea446ee	0.32085365
231	0x3dfe6ea9	0.124234505
232	0x3e39e311	0.18153025
233	0x3e9ad6ed	0.302421
234	0xbe0f6bd9	-0.14005984
235	0x3d60b72b	0.054862183
236	0x3d37a386	0.044833682
237	0xbc19c8b0	-0.009386227
238	0x3deaf89b	0.11473199
239	0x3e1c7d42	0.15282157
240	0x3e3240b0	0.17407489
241	0x3ec92662	0.39287096
242	0xbe91fee4	-0.2851478
243	0x3e9d5f01	0.30736545
244	0xbe89f8c4	-0.26947606
245	0xbe1508c6	-0.14554128
246	0x3e50c53a	0.20387736
247	0x3d0899f5	0.03334995
248	0x3e8fa662	0.28056628
249	0x3e6d51ca	0.23175731
250	0xbc6b5970	-0.014364585
251	0xbcff6d6c	-0.031180106
252	0x3cbb08e6	0.022831392
253	0x3e815320	0.25258732
254	0x3c8005ad	0.015627706
255	0x3dc97d59	0.09838361

layer5.bias f4 [24]
0	0xbd4720b6	-0.04861518
1	0xbd71e540	-0.05905652
2	0xbd1358b9	-0.035973284
3	0x3d97c22c	0.07410082
4	0xbda7e2ff	-0.08197593
5	0xbe2ef02b	-0.17083804
6	0x3e1b1726	0.15145549
7	0xbd5469b4	-0.05185862
8	0x3e29b32b	0.16572253
9	0x3eaa77c9	0.33294514
10	0xbdad5070	-0.08462608
11	0x3d37d555	0.044881184
12	0xbd223965	-0.039605517
13	0x3dfde6f2	0.12397565
14	0x3e7716fe	0.24129865
15	0x3d78012b	0.06054799
16	0x3d9b6845	0.07588247
17	0xbd39b478	-0.045338124
18	0xbd8b3a6c	-0.067982525
19	0xbe20916c	-0.15680474
20	0x3e46ac1a	0.19401589
21	0x3ee14271	0.43996003
22	0x3d033b91	0.03203923
23	0x3f25c649	0.64755684

layer6.weight f4 [2, 24]
0	0x3ef7fdef	0.48435923
1	0xbe39e884	-0.18155104
2	0x3ebc02d4	0.36720908
3	0x3eb26650	0.34843683
4	0xbe1e7285	-0.15473373
5	0xbd261de8	-0.040555865
6	0x3ebf16b1	0.37322
7	0xbdfb9e22	-0.12286021
8	0xbb6422ec	-0.0034810854
9	0x3dd8a2ac	0.10577902
10	0x3e49b8c1	0.19699384
11	0xbeddf90b	-0.43354067
12	0x3e671a37	0.22568594
13	0xbec73043	-0.38904008
14	0x3cd61b8b	0.02613618
15	0x3f09d8a8	0.53846216
16	0x3e817e4e	0.25291675
17	0x3e2328e4	0.15933567
18	0x3c9dfef0	0.019286603
19	0xbe531eac	-0.20617169
20	0x3ecde6b7	0.40215084
21	0x3f05e935	0.5230897
22	0x3e292f27	0.16521893
23	0x3f6031de	0.8757609
24	0x3d87f08c	0.066376776
25	0xbe39b9c9	-0.18137278
26	0x3eac8916	0.33698338
27	0x3e8857ce	0.2662949
28	0xbe0135f0	-0.12618232
29	0xbd7455d0	-0.05965215
30	0x3db26c09	0.08712012
31	0xbd8dd038	-0.0692448
32	0x3edfbaca	0.43697196
33	0x3ebb4533	0.36576232
34	0x3e8e0874	0.27740824
35	0xbeacb031	-0.33728173
36	0x3ed941d7	0.42433044
37	0x3dedd40e	0.11612712
38	0x3f0a8d1e	0.5412158
39	0xbe36b233	-0.17841415
40	0x3eb61d68	0.3556931
41	0x3eb1f6b7	0.3475854
42	0x3b130f00	0.002243936
43	0x3e7672dd	0.24067254
44	0x3e3bb20a	0.18329635
45	0x3f1e5a32	0.6185638
46	0x3ede7433	0.43448028
47	0x3e94340a	0.28945953

layer6.bias f4 [2]
0	0x3e91a0a7	0.2844288
1	0x3df440c6	0.11926417
