SavedNets/MountainCar-v0_dqn.pth (torch, 23003 bytes, 12 tensors)

layer1.weight f4 [64, 2]
00000000: f52d 47bf b0df 1dbf 631f 0abf a6f6 adbf
00000010: a99b 36bf 8cc6 33bf b2ee 15bf 55fc 52bf
00000020: e7ef 163e 9767 cabe 326d cd3e 88a6 b63d
00000030: 5da3 c03e 67e2 4f40 3e27 cebe 0ffc b6bd
00000040: 28d6 bebe 500f f8bd 9d2a febe 18b7 cabf
00000050: 44f4 363d 990b 23bf ae33 e7be 5ef0 42be
00000060: 21e5 283f e6bd ad3e 04ee 3dbe 0de8 cfbe
00000070: 5ac7 cd3e 9f9e fbbe fcb7 703e 04ed 6fbe
00000080: b584 a73e 255b a6be 2037 0f3d e881 743e
00000090: 4de9 113f 8352 2240 4a91 123f c28d 31bf
000000a0: 5079 68be 8932 a5bf 20ee 6f3d 947a 4d3e
000000b0: bfcf e1bd ec20 15c0 7e72 5abe 9826 4ebf
000000c0: 65fc 423f 7383 2abe a7cd 813e ca64 463f
000000d0: fe20 853e 0a7e c03e 1350 653f f99a aabf
000000e0: e3e0 0dbf 0127 babf f24e 14be bd84 dcbe
000000f0: a1af debd dc83 903e 3ac3 413e 039b 41bf
00000100: 30a9 8abe 7c4a ccbe 4966 3f3f 4d39 44bf
00000110: bd37 cdbe 1879 2abf 15ed a0be 7da7 953f
00000120: 52d4 55bf ae87 23bf 7aaf c03e d54f abbe
00000130: dcb4 d9be 73d7 61bf b647 ce3e 2ee8 01bf
00000140: d4d1 b1be 525b ddbd 7560 10bf b8fa 38bf
00000150: a517 24bf 411f 8abf 4627 c33e 1952 27bf
00000160: 70fe fbbe 00e8 dfbb 3b91 26bd c7fd a53d
00000170: 6b77 28bf 96d6 88bf 9e66 663e 9d9c 1fbf
00000180: 60e1 17be 4e35 9f3e 76e7 bb3e b015 343d
00000190: 4ce7 513e a60c a13e 8723 68be 78ab 5bbf
000001a0: 993c 0a3f 1f76 303f f9df 683e e179 f0be
000001b0: 7889 e6be 5158 1ec0 c983 babd a974 22bf
000001c0: ac35 36be 20a5 cbbd 75b3 0b3f 7bfa 5740
000001d0: a046 25be d959 8cbf bed1 af3e d01d 67bd
000001e0: 956b 49bf 79dd 10be ebee 473f aab5 88be
000001f0: c305 70be 16d3 54be cde2 4abf 3952 03c0
-0.778045 -0.61669445 -0.5395414 -1.3590896 -0.7133127 -0.70224833 -0.58567345 -0.8241628
0.14739953 -0.39532158 0.40122372 0.08918482 0.37624636 3.2481935 -0.40264314 -0.08934795
-0.37272763 -0.12112296 -0.49641886 -1.5837126 0.044666544 -0.6368957 -0.45156616 -0.19037005
0.6597462 0.33933944 -0.18547827 -0.40606728 0.40191156 -0.49144456 0.23507684 -0.23430258
0.32718435 -0.32491413 0.03496468 0.2387768 0.56996614 2.536286 0.57252944 -0.6935693
-0.22702527 -1.2906047 0.058576703 0.20066291 -0.110259525 -2.3301344 -0.21332738 -0.8052764
0.76166373 -0.16651706 0.25352213 0.7749754 0.26001734 0.3759616 0.8957531 -1.3328544
-0.55421275 -1.4543153 -0.1448324 -0.4307002 -0.10873342 0.282256 0.1892213 -0.75627154
-0.27082205 -0.39900577 0.7476545 -0.76649934 -0.40081587 -0.66591024 -0.3143088 1.1691738
-0.835271 -0.63878906 0.37633878 -0.33459345 -0.42520797 -0.88219374 0.40289086 -0.50744903
-0.347304 -0.108084336 -0.5639718 -0.72257566 -0.6409858 -1.0790788 0.381159 -0.65359646
-0.49217558 -0.0068330765 -0.040665846 0.08105045 -0.6580722 -1.0690486 0.22500083 -0.6234835
-0.14832067 0.31095356 0.36700028 0.043965995 0.20498389 0.31454962 -0.22669803 -0.85808516
0.53998715 0.6893024 0.22741689 -0.46967986 -0.45026755 -2.4741404 -0.09107167 -0.6345926
-0.17793912 -0.099436045 0.54570705 3.374663 -0.16140223 -1.0964919 0.34339708 -0.056424916
-0.7867978 -0.14146985 0.78098935 -0.267011 -0.23439698 -0.20783648 -0.7925232 -2.0518935

layer1.bias f4 [64]
00000000: bf74 223f 414c 71bd 3daf fa3e ef5d a93e
00000010: 9079 983e 0649 f1be 193e 3e3e 6022 103f
00000020: b0fa cf3e e5d9 ad38 aeb2 583e f6e6 273f
00000030: d19b 1ebf b9dc 123f 409d 59be a04d 13be
00000040: e224 e83e 2462 16bf 8453 3a3d 7e0e 483f
00000050: c8ca bf3e e4de 85be 3ce5 153e 1b46 2e3f
00000060: 0cc8 8f3e f329 1b3f 9b22 e9be 5da3 953e
00000070: c285 ad3e 50ad 533e 610d 463f 81c6 ea3e
00000080: 0b4f 113f 3bd9 893e 15ae d03e 187d b7bd
00000090: 3ce3 14bf 96e9 18bf 01b2 e8be 4066 eabe
000000a0: 5c2b d83e c3bc a83e 5471 b2bb a6e4 09bf
000000b0: 35ff 503f 175a 223f 01f9 d43e 6156 533f
000000c0: 93c0 c0be 7b2c cebe a0ea d3be 5059 973c
000000d0: f3ca 1fbf 5cbd 2e3f 70c1 ac3e b3b5 ea3e
000000e0: 38d2 c6be e57b 0e3e f2f3 503e 102f 46be
000000f0: eae7 483f 1217 7ebe a7e0 a13e 5ca7 7dbe
0.6345939 -0.058910612 0.4896182 0.33079478 0.29780245 -0.47126025 0.18578376 0.5630245
0.40620947 8.289869e-05 0.21161911 0.65586793 -0.61956507 0.57368046 -0.21251392 -0.1438508
0.4534064 -0.587435 0.045489803 0.78147113 0.37459397 -0.26146615 0.14638227 0.6807572
0.2808231 0.60610884 -0.45534214 0.292262 0.33891112 0.20671582 0.77364165 0.4585457
0.56761235 0.26923546 0.40757814 -0.089594066 -0.5815923 -0.59731424 -0.45448306 -0.45781136
0.4222058 0.32956514 -0.0054456387 -0.53864515 0.81639415 0.63418716 0.41596225 0.8255368
-0.37646922 -0.4026831 -0.41389942 0.018475205 -0.6241905 0.6825769 0.3374133 0.4584175
-0.3883226 0.1391445 0.20405558 -0.1935389 0.7847887 -0.24813488 0.3161671 -0.24770874

layer2.weight f4 [32, 64]
00000000: 43c4 bf3d 5a0a e3be e265 213e 98e3 2f3e
00000010: b7a7 233e c0f2 39bc e51c 4bbf aee3 523e
00000020: bd58 a13d dfa3 c8bc 352f 8c3d b341 583e
00000030: a0f9 fe3d 5a73 483e dad3 923d 2c91 3e3d
00000040: 969e 8e3d 008a c33a 4e4b d2be f7e1 bf3d
00000050: ccf0 093e e2ee 953d 46ca 49be 7b83 35ba
00000060: aaa1 663e c3a5 0b3e 78ce bdbc 26cc 0c3f
00000070: 76d2 8e3d 0238 003d 5abb 013e 8cde 523e
00000080: 3266 143d be42 d13e e95d 0e3e 48f6 463f
00000090: 9b7f cdbe c80b f5bd 9b64 59be ead1 eebd
000000a0: f6d3 a43b 3aff 2e3e b4eb 79bc c445 e9bd
000000b0: fc41 4b3e 7162 b33d 5942 4e3e 851c 2f3d
000000c0: 326c f3bd d0b4 a9bd a0bf 9ebc f193 e2be
000000d0: 008a 0bbc 2b1e 5d3d aed2 1e3d 5610 e63d
000000e0: 20e3 e53b bd67 21bf e53f 2e3e d4e6 9cbd
000000f0: 6a68 3c3e 6406 9dbd 3a37 8a3d c831 d9be
00000100: 6442 cebc c28e 893d 1a56 5abe b5a3 96be
00000110: cdc3 ce3c 8a40 8cbd 0545 393f aeb4 68bb
00000120: 6b9f 27bb c071 433d 91d3 35be e098 20bd
00000130: 6877 47bd 1d04 e3bb 2825 43bd 22a5 c43d
00000140: 4dd4 a13d 5e1a e53d 951a 413f 8a89 ab3d
00000150: 229a 91be 46ac 9b3d bf7a 92bf 6f85 693d
00000160: be57 c33d 6061 913e 5843 873c 3208 95bd
00000170: 2abd 12bf 40ba ccbd 55e5 f53d a687 723c
00000180: 0721 0a3d 85bf 83bc 9711 3dbe 960e 0c3f
00000190: 4119 8d3c d4f6 9e3d d0af 15bc bccc 01bd
000001a0: 1f0a b6bc 48d6 6bbe 3388 083f 4030 c13d
000001b0: 54cf 163d 4bd2 c83d 4dcb 1fbe 9010 d13d
000001c0: 7019 58bc 74c2 973d 7835 693d af6d b13e
000001d0: e41e 4f3d 5443 813d 703b 31bf 5b47 4ebd
000001e0: e0f2 f03d 3c26 3f3f 717c e6be 7824 a33d
000001f0: 4372 b63c dfde 813e c66e 3cbd 4221 fa3d
00000200: 1c0b 193d a2c5 e03d 081a 873d 2410 60bd
00000210: 0628 863d 20f0 f2bb b044 a93d 48a7 33bd
00000220: 8846 16bd fabb ec3d 786d b43c f891 8f3c
00000230: 4005 523c 5080 053c 605a ac3b 0875 debd
00000240: 901c f73d 9066 f43d 823c b0bd c035 fd3c
00000250: 1c9c d33d 884a c63c 8c3b 5c3d 78aa be3d
00000260: 9855 593d c017 b9bc aecf d4bd 7c75 71bd
00000270: 7669 98bd 00b6 253b 8243 b5bd da8e a23d
00000280: a0b3 c93c bcc3 5dbd 0458 94bd 04b8 273d
00000290: f81f f5bc 10a4 c33c 306b 403c d0be 7e3c
000002a0: 98b5 8dbc 60aa c8bc 701c f0bc 746d 453d
000002b0: e40a a5bd 40fb 3f3b 4c0c 50bd a248 f3bd
000002c0: 2c13 103d 04c3 1d3d 3acd e33d 1234 a83d
000002d0: e88f fa3d 402b c9bd 60d5 debd c83e 1f3d
000002e0: 44ec 7a3d 7c90 613d 0894 a8bd be56 c83d
000002f0: 0685 debd 286f 083d 4808 44bd d441 38bd
00000300: 9fea c03d b23a dc3d 9b2b 343d 353d 503d
00000310: c167 7137 44f4 9cbd 7c7f 053d 1811 d33d
00000320: 184e 443d 12a7 f9bd 8e9d 07bd a3ba 103d
00000330: 00d9 bcbc 8cbb 31bd 1472 e0bd 60b0 513c
00000340: d1f1 f53c 64ac e8bd c87d c33c ff4e 0c3d
00000350: 4045 2b3d 96c3 a63d 94df a6bd 03a4 143d
00000360: 181b 823c bbef 24bd 208b f9bb 2099 fc3d
00000370: 8d97 8aba 06e2 1cbd 31ac 22bb 7104 83bd
00000380: 5756 9dbd 29a8 f8bc a9cb 753d f3dd 22bc
00000390: 93eb f1bc 50ac 543d ce04 8e3d 48f1 bcbc
000003a0: 3498 13bd f11a 853c 1304 99bd 74a6 bc3d
000003b0: fc1b 21bd 7283 3dbd 38cb e03d e196 cebd
000003c0: c0bf 09bd 60a7 e73d c0de 6dbd 3002 dabc
000003d0: 987b f53d a17a 3abd 9a77 563d 8dd8 493d
000003e0: 8891 c53c e203 d9bd bc1a b1bd 5864 ccbd
000003f0: 65cd 02be 9cc9 0ebd 3be3 243c bf4e e1bd
0.09363606 -0.44343835 0.15761521 0.17176664 0.15981947 -0.01134938 -0.79340965 0.20594665
0.078782536 -0.024492202 0.068449415 0.21118812 0.12449956 0.19575253 0.07169314 0.046525165
0.069638416 0.0014918447 -0.41073078 0.09369271 0.13470763 0.07320954 -0.19706067 -0.0006924194
0.22522607 0.13637452 -0.023169741 0.54999006 0.06973736 0.031303413 0.12669125 0.20592707
0.036230274 0.40871233 0.13903011 0.77719545 -0.40136418 -0.11965138 -0.21229784 -0.11661132
0.0050301505 0.17089549 -0.01525395 -0.1139026 0.1984939 0.087590106 0.20142497 0.042751808
-0.11885871 -0.0828644 -0.019378483 -0.44253495 -0.0085167885 0.05398385 0.03877514 0.112335846
0.007015601 -0.6304892 0.17016561 -0.076612145 0.18399206 -0.076672345 0.06748815 -0.42420793
-0.025178142 0.06716682 -0.21321908 -0.29421774 0.02523985 -0.06848247 0.7237094 -0.0035508084
-0.0025577198 0.047715902 -0.17756487 -0.039208293 -0.04869786 -0.0069279806 -0.047642857 0.09601809
0.07901821 0.1118667 0.75431186 0.08375843 -0.28437907 0.07601218 -1.1443709 0.057012018
0.0953822 0.28394604 0.016511604 -0.07276954 -0.5731989 -0.09996462 0.12006632 0.014802849
0.033722904 -0.016082535 -0.18463741 0.54709756 0.017223956 0.077619225 -0.009136155 -0.03168939
-0.022221623 -0.2303096 0.53332824 0.09433031 0.036818817 0.09805735 -0.15604897 0.10208237
-0.0131896585 0.07410136 0.056935757 0.34653994 0.05056657 0.0631167 -0.6923132 -0.05036102
0.11765075 0.74667716 -0.45016816 0.0796594 0.022271281 0.2536535 -0.04600408 0.12213375
0.03736411 0.109751955 0.06596762 -0.054702893 0.065506026 -0.007413879 0.08265054 -0.043860704
-0.036688358 0.11559291 0.022024855 0.017525658 0.0128186345 0.008148268 0.005259797 -0.10862166
0.12065995 0.11933625 -0.08605291 0.030909419 0.1033251 0.024205461 0.053767726 0.09309858
0.053060144 -0.022594333 -0.10391174 -0.058949932 -0.0744199 0.0025285482 -0.08850767 0.07937403
0.024621785 -0.054141745 -0.0724335 0.040946975 -0.02992247 0.023881942 0.0117443055 0.015548423
-0.017298505 -0.024495304 -0.029310435 0.048200086 -0.08058718 0.0029294044 -0.050792977 -0.11879088
0.035174534 0.03851606 0.11123128 0.082130566 0.12234479 -0.098227024 -0.10880542 0.038878232
0.061260477 0.05506943 -0.0823136 0.0978217 -0.10865216 0.03330913 -0.04785946 -0.044984654
0.094197504 0.10753383 0.043986898 0.05083962 1.43888765e-05 -0.076637775 0.03259228 0.10305995
0.04792604 -0.12190069 -0.03310924 0.03533424 -0.023052692 -0.04339175 -0.10959259 0.012798399
0.030022534 -0.11361006 0.023863688 0.034255024 0.04181409 0.08142774 -0.08148113 0.036289226
0.01588206 -0.040267687 -0.007615462 0.12333894 -0.001057373 -0.03830149 -0.0024821872 -0.063973315
-0.07682484 -0.030353623 0.06000868 -0.009940612 -0.029531276 0.051922143 0.0693451 -0.02306427
-0.036033824 0.016248198 -0.0747148 0.09211436 -0.03933333 -0.046267934 0.10976261 -0.100873716
-0.033630133 0.11311221 -0.05807376 -0.026612371 0.11986464 -0.045527104 0.052360155 0.049278785
0.024117246 -0.10596444 -0.08647677 -0.099800766 -0.12773664 -0.03486024 0.010063942 -0.11001348

layer2.bias f4 [32]
00000000: e9c3 e73d 29e5 5a3e 0054 43bc a908 9dbd
00000010: fb28 583e 23f7 6f3d 86be dcbd 9992 5d3e
00000020: 941c d1bd ee66 20bd 6c49 293e 6e95 abbd
00000030: a4f3 4c3e 1681 703e d9c4 323e 9b29 5cbc
00000040: 182f 02bd 69c9 323e 078f 3bbc c1a5 f03d
00000050: 1a1e fbbd b32a 60bd 9f2f f63d 7c67 10bd
00000060: 19d2 1e3e 181f 43bd d65e b1bd 3d67 4d3e
00000070: a81f 113e 581f ad3d 215a 743d 19ac 96bb
0.11316664 0.2137648 -0.011921883 -0.076676674 0.21109383 0.058585297 -0.10778527 0.21637954
-0.10210529 -0.03916066 0.16531914 -0.08378111 0.20014817 0.23486742 0.17457904 -0.013437654
-0.031783193 0.17459644 -0.011447675 0.11750365 -0.12261601 -0.05472822 0.12020802 -0.03525494
0.15509833 -0.047637075 -0.08660667 0.20058914 0.14172232 0.08453244 0.059656266 -0.0045981524

layer3.weight f4 [32, 32]
00000000: 0bff 073e b707 e2be a5aa bbbd 36b3 06be
00000010: fcca 793e 4a31 763d 2234 a7bd 0cdf ac3e
00000020: 1c3d 24be 67b1 cdbd 2046 8c3e 30d9 513c
00000030: ebda 543e 3562 9c3e 87f0 273e d3a3 05be
00000040: 3856 8a3c a633 ef3a 7b8e 413e d0ff 0d3e
00000050: 8082 cfbd 37df c93d f319 5c3e a0de 5c3c
00000060: e4e7 8a3e 8a39 d53d b12d 9fbe cf32 5c3e
00000070: aa0b 273e 45c2 333e 7a66 903e 9080 2f3d
00000080: 60f6 463d 294c 1c3e fce0 353d 0ae1 6fbd
00000090: 9a93 ce3d 78de a3bc 9ea1 a2bd 9d3f 03be
000000a0: dce4 7d3d 8023 aeba d89d 31be dae1 dd3d
000000b0: a314 143e fd5b 9abd bcb8 07be 186a 85bc
000000c0: a2cf 61bd 9853 123d 26fc 12be 839c 16be
000000d0: 04a6 a6bd 8c23 0bbe 1c79 5f3d e5bb 133e
000000e0: 2013 163c 16f5 aa3d 643e 323d 1455 73bd
000000f0: 242b e6bd 4845 613d c024 b2bc e23b 23be
00000100: 0bdb 2f3e 37b1 01be de17 b43d 0cce 013d
00000110: e148 1c3e 7460 8fbd e08f 423d 1741 09be
00000120: 14bf 0bbe 800f 6dbb fb38 283e c0de babb
00000130: c058 1fbc a24d c83d b8cf a5bc 8012 b33b
00000140: 9990 babd 91c4 d0bd 7fdb 303e 6435 dcbd
00000150: 08fc 19be d4a9 6d3d 0008 e638 d084 413d
00000160: a4a6 02be 6e3e cb3d 1efb bf3d cca1 5fbd
00000170: 6be7 b8bd 8a2f 8c3d acef 5a3d 447f bebd
00000180: 908f 37bc e4c0 133d 0835 b3bd 701e 623c
00000190: a845 243d 5e7d cc3d 21b2 0abe 9d84 073e
000001a0: 0000 f2b7 60c8 35bc b868 8f3d 0082 6d3c
000001b0: 5784 21be a0aa 1ebe 74be 08bd 7172 2f3e
000001c0: 9eda 0cbe abc9 2a3e 7762 a2bd ae1c ca3d
000001d0: 60d5 cb3c ef79 16be c740 093e ea98 02be
000001e0: 70a9 2ebd 2864 37bd 4703 133e 6620 11be
000001f0: 6522 28be 5822 a53c d69d 57bd b37c debd
00000200: bdb6 173d c6db 3fbf 9519 163e 3c2a 08be
00000210: 445a 613e 8f51 823e 6818 843c fce2 593e
00000220: eef2 953d 9122 25be abdb a53e ecf5 2b3d
00000230: c2ec a03e fd86 6f3d 57c0 7c3d 0cf4 243e
00000240: 8cd6 33be 1a87 883d b918 923e 18af 583e
00000250: 8255 ffbd 5986 e1bd b6a8 923e 78e7 873d
00000260: d4b3 ea3d 82b4 11be a8cf 08bf 481f 9a3e
00000270: fc39 233e 4194 753e 7434 513e 3a78 aa3e
00000280: 38c2 6a3d 9cfc 2c3d fa70 cd3d 619f c1bd
00000290: 6b7c 34be 6657 fb3d 4cf5 3a3d 002f 6d3c
000002a0: 0868 b03c 483e 0dbd 4061 45bd d85b 09be
000002b0: e83b 023d c001 82bc 2529 083e 016e cfbd
000002c0: fecb 8a3d bfe9 2ebe 2380 28be 9e5b c63d
000002d0: 36d8 e63d c0c7 1b3b 5881 f03c 7f79 2c3e
000002e0: 9fbb 11be 84b4 1cbd de2c 08be 202b 12bd
000002f0: f59f afbd a2dd 833d e407 893d 200c fe3b
00000300: ef89 383e e226 15bf a0dc 66bc 13ab 903d
00000310: 6b9f a93e 0117 853e c827 e73c fa0a c53d
00000320: e23a fd3d 02fa f0bd e809 bc3e 7829 cbbd
00000330: ca92 803e e0a1 7f3e 280f 813e 0338 1fbe
00000340: 76ea 6abd 6f38 073e 0aa0 3d3e 5364 a63e
00000350: 7540 09bd d096 1cbd c968 233e c787 243e
00000360: 7278 3c3e 706d 913d afd1 99be 3629 ae3e
00000370: 8e32 873e 2ecf a73e 19d5 b43e 520c 9a3d
00000380: 5006 9a3e fec6 25bf 659f 323e 62b7 c1bd
00000390: 5603 963e ffb3 5e3e e064 67bc be67 af3e
000003a0: f312 34be fbdd c23d 904d 3c3e da13 e8bd
000003b0: 4360 a43e 39f2 913e 1b74 3cbc 9005 003e
000003c0: 2aa4 ff3d 2976 8f3e 96d4 ed3c af50 173c
000003d0: e04d 82bd d1c0 403c 5622 ad3e 20c4 033d
000003e0: 8f5e a73e e929 e5bd ae0b babe 56fc 123e
000003f0: f397 e63d abe8 5d3e 9f15 093c d67d aa3d
0.13280885 -0.4414651 -0.09163407 -0.13154301 0.24393839 0.0601056 -0.081642404 0.3376392
-0.16038936 -0.100436024 0.2739725 0.012808129 0.20786636 0.30543676 0.16400348 -0.13050775
0.016886815 0.0018249645 0.18902008 0.13867116 -0.10132313 0.09857028 0.21494274 0.013480812
0.27130044 0.10411365 -0.31089547 0.21503757 0.16313043 0.17554577 0.28203183 0.042847216
0.048574805 0.15263428 0.044404015 -0.058564223 0.100867465 -0.020003542 -0.07940982 -0.12817235
0.061985835 -0.0013285726 -0.17345369 0.108340934 0.14460997 -0.075370766 -0.13254064 -0.016285941
-0.055129655 0.035724252 -0.14354 -0.14708142 -0.08137134 -0.13587779 0.05455886 0.14427145
0.009159833 0.08347528 0.04351653 -0.05940731 -0.11238697 0.054997712 -0.02174604 -0.15940812
0.17173402 -0.12665258 0.08793615 0.031690642 0.15262176 -0.07000819 0.04750049 -0.13403736
-0.1364711 -0.0036172569 0.16427986 -0.0057028234 -0.0097257495 0.09780432 -0.02024065 0.005464852
-0.09109611 -0.10193742 0.17271231 -0.10752371 -0.15037549 0.05802329 0.00010968745 0.0472458
-0.12758881 0.09924017 0.09374069 -0.05459766 -0.090285145 0.06845005 0.053451225 -0.09301618
-0.011203662 0.036072627 -0.08750349 0.013801202 0.040105492 0.099848494 -0.13544513 0.13234182
-2.8848648e-05 -0.011095136 0.070023954 0.014496326 -0.1577314 -0.15494776 -0.033384755 0.171335
-0.13755271 0.16678493 -0.07928937 0.098687515 0.024882019 -0.14694951 0.13403617 -0.12753645
-0.042642057 -0.04477325 0.14356719 -0.14172515 -0.1641937 0.020157978 -0.05264076 -0.10863628
0.037039507 -0.7494472 0.14658196 -0.13297361 0.2200709 0.2545285 0.016124919 0.21277994
0.07321726 -0.16126467 0.32394156 0.041982576 0.31430632 0.058478344 0.061706867 0.16108721
-0.17562312 0.066663936 0.28534487 0.21160543 -0.12467481 -0.11011953 0.2864434 0.06635946
0.11460081 -0.14229015 -0.5344186 0.3010199 0.15940088 0.23982336 0.20430166 0.3329485
0.057314128 0.042233095 0.10031314 -0.09454227 -0.17625587 0.12272529 0.04564409 0.014476538
0.021533981 -0.034483224 -0.048188448 -0.13413942 0.031795412 -0.015869975 0.13296945 -0.101284035
0.0677719 -0.17081355 -0.1645513 0.09685443 0.11271708 0.0023770183 0.02935855 0.16843222
-0.14231728 -0.03825809 -0.13298365 -0.03568566 -0.08575431 0.064387575 0.06690958 0.0077529103
0.18021367 -0.58262455 -0.014090687 0.0706388 0.3312944 0.25994113 0.028217211 0.09621234
0.12364747 -0.11766435 0.36726308 -0.09920019 0.2511199 0.24964094 0.25206876 -0.1554871
-0.057352506 0.13205121 0.18518081 0.32498416 -0.033508737 -0.038229764 0.15957941 0.1606742
0.18405321 0.07100952 -0.30042788 0.34015816 0.26405758 0.32775253 0.3531883 0.07521881
0.3008294 -0.64756763 0.17443617 -0.094588056 0.2929942 0.2174835 -0.014123172 0.34258837
-0.17585354 0.09514996 0.18388963 -0.113319114 0.32104692 0.28505114 -0.011502291 0.12502122
0.12482484 0.28019837 0.029032033 0.009235545 -0.0636251 0.011764721 0.3381526 0.03216946
0.3268933 -0.11189634 -0.36337036 0.14354071 0.11259451 0.21670787 0.008366971 0.083247826

layer3.bias f4 [32]
00000000: 0f01 143e bc31 253d cc75 0fbd fe3e 9bbd
00000010: 2e50 09bd ea6f 09be 0c0d 09bd 9265 9a3d
00000020: e434 15bd 68e6 963a df85 393e 4a25 753d
00000030: 9add 6c3e d433 053e d4e5 953e 8bed 0fbd
00000040: 051f 233d 683b db3d 85f9 24be 94d5 d9bc
00000050: 323e fc3b 1bae 533e cb8d ba3d 6c30 04be
00000060: 8f3e a83c aa89 a93d 05d8 383d e7d4 85bd
00000070: d207 6dbc 60db ecbc 0773 04be c1dd ec3d
0.14453529 0.040330634 -0.03502445 -0.07580374 -0.03352373 -0.13421598 -0.033459708 0.07538904
-0.036427394 0.0011512758 0.18117474 0.059850015 0.2313141 0.13008052 0.29276907 -0.035138648
0.039824504 0.1070469 -0.16110809 -0.0265911 0.007697844 0.20671885 0.09109076 -0.12909096
0.020537643 0.082782105 0.045127887 -0.065347485 -0.014467197 -0.0289132 -0.12934504 0.11565734

layer4.weight f4 [24, 32]
00000000: bc66 d0bd b820 d5bc 3b63 223e 8a9e a23d
00000010: 4019 59bc c413 f0bd c28b 53bd 888f 2ebe
00000020: 22ff 6bbd 78b5 e33c 0f24 943d c884 2dbe
00000030: b2ea 2abe 6b8d 103e 8a4e ffbd 2096 18be
00000040: ea52 223e c0a2 a53d 37a5 223e 1829 dfbc
00000050: 8533 173e 8a10 1f3e 57f3 d1bd ceaa 2d3d
00000060: 4003 b33b 0094 a1bd 38b5 853c d555 02be
00000070: e062 3f3d 81dd e9bd e83b 87bc 7c2c 363d
00000080: b09c 123e 4a80 e43d 0817 b63c d0bb 6e3d
00000090: bd16 1f3c 809f c2ba 7f22 a73d bf3d 4f3b
000000a0: 14c9 24be c9e0 0c3e 63f7 75bc 9a6f 833e
000000b0: 4f74 313e 17fa 0f3e 3832 0bbf 8981 1abf
000000c0: ed4f 08bd f127 993e 93c4 1abe b4f3 213e
000000d0: ef8c 2ebf 178a 533e bf7e a03e 5e81 2b3e
000000e0: 2787 653d 60e1 4d3d 066a aebc 8183 b33e
000000f0: 8ce4 d1bb a997 94bd 3566 cf3d 55e7 e3bd
00000100: 83a8 273e 1335 05be a8eb 21bd e4d6 68bd
00000110: 6923 b23e 66bd 9f3d e195 6e3e 39a6 863e
00000120: cd20 d9bd 97af 2cbe 1082 833e 6e11 863e
00000130: 4693 9b3e 4b9d 7e3e 15be 2cbf b499 12bf
00000140: adb3 5c3d d590 853e bb83 323e 51ea 093e
00000150: c0c6 75bf 75a3 8d3e f29a a53c d49c e5bd
00000160: 8d12 84bd f00f 19bc 2b3a cfbd c6d9 553e
00000170: 5f40 2fbc 269d b0bd 8ce8 5cbd 92a1 7f3d
00000180: 6bed 01be 7a24 79bd 2ea0 c8bd 9bc4 25be
00000190: 8e28 a7bd 0221 be3d 7ebb df3d 6cc3 37bd
000001a0: f255 e1bd 5d95 8bbd 40ec a0bb b5b7 083e
000001b0: a2a4 f33d 3d81 05be a0b9 7bbd 9230 d53d
000001c0: 1585 243e 3281 fcbd c23a 933d de49 9e3d
000001d0: fc84 06be 9406 253d 666d f43d 306b 063c
000001e0: 8424 e1bd 8a0c 8d3d d019 c5bc ba15 21be
000001f0: cbde 0d3e 7081 03be 8c71 05bd a74e 20be
00000200: 5f4f 0b3e de34 8b3d d13c bcbd e699 b83d
00000210: 9ef1 663e 28e0 aebd 319c a63e 5118 623e
00000220: e660 9f3d 0131 13be 2bee 483e 0b68 003d
00000230: 281c 393e 4051 4a3e 4c2f 4dbf 630d 05bf
00000240: 22d1 163e 050b fd3d 80ed cabb e07d 9d3e
00000250: efb7 7ebf ac50 b53e b553 603e 984b 73bd
00000260: 6021 ae3d 2023 82bc 4980 dfbc 690c 853e
00000270: a0eb e13d 32ce e13d 0b95 ccbc a8a3 e6bd
00000280: 86b0 febd d0bf 3abd a6c0 5abd cf60 e9bd
00000290: ff82 163e 3a0c d73d 7bfe 0d3d 143c edbb
000002a0: 66d6 d93d 708b 9c3c 1c02 9fbd 3482 efbc
000002b0: a1fe 873d badb 30be 78bc 80bd da0e f4bd
000002c0: 1cf8 223d 45fb 1e3e 403a bfbd 942e cb3d
000002d0: 0d11 b8bd a206 cbbb b9a4 37be 942f 1fbe
000002e0: 8ab6 f93d 84b2 64bd a247 ec3d e6e4 043e
000002f0: 4212 33be 8a01 a03d 6a42 ee3d 4852 bc3c
00000300: 1f03 113e 7717 a0bd dc7b 28be faf9 08be
00000310: c0cc cfbc 9c4b 44bd e27c 95bd c8ee d4bc
00000320: 68f4 8ebc 5419 5b3d b29f dbbd 284a 0abd
00000330: 3e8d 9a3d d5eb 00be 8ad5 2dbe 1023 583d
00000340: c05f 5ebc 9c16 8cbd d08c 0dbe 869e bd3d
00000350: 5181 243e d856 c23c 50f5 a53c 875f 1d3e
00000360: a7b3 233e 4257 7dbd 3c47 613d 0c1e 16be
00000370: 1e86 c53d 30cb 8c3c f82f 8cbc f016 2c3c
00000380: 85d8 0dbd 8cee 053d c8a9 d13c 7e42 f1bd
00000390: 602f c4bd 56c6 8a3d 4442 34be aa26 b63d
000003a0: 74fa 593d f00f adbc 4f80 283e 481a 0e3e
000003b0: dbd2 dbbc c25b 23be 0041 a23a 4e2e bf3d
000003c0: 8b14 a13d fc46 203e 3247 803d a824 94bd
000003d0: 28da 3fbd a353 aa3d 6fc0 c0bc e2e8 bf3d
000003e0: b9ec 0b3e ad16 acbd 907a 20be ddc7 b5bd
000003f0: f08d 32bd cc92 3c3d 6879 813c 6a64 25be
-0.10175845 -0.026016578 0.15858166 0.07940395 -0.013250649 -0.1172252 -0.051646955 -0.1704694
-0.05761636 0.027796492 0.0723344 -0.16945183 -0.16691092 0.14116447 -0.12466152 -0.14901018
0.15851942 0.08087683 0.15883337 -0.027241275 0.14765747 0.15533653 -0.102514915 0.04239922
0.005463034 -0.07889557 0.016321763 -0.12728055 0.046725154 -0.11419202 -0.016508058 0.044476017
0.14317584 0.11157282 0.022227779 0.05828458 0.009710011 -0.001484856 0.081608765 0.0031622497
-0.1609233 0.13757624 -0.015012595 0.25671083 0.17329524 0.14060245 -0.543735 -0.60353905
-0.03327935 0.29913285 -0.1511405 0.15815622 -0.681838 0.20658146 0.313467 0.16748568
0.056037094 0.050263762 -0.02129079 0.35061267 -0.0064054187 -0.072554894 0.10126916 -0.111281075
0.16372876 -0.13008527 -0.03953138 -0.05684556 0.3479264 0.07799797 0.23299362 0.26298693
-0.106019594 -0.16863857 0.25685167 0.26185173 0.30385798 0.2486469 -0.6747754 -0.5726578
0.05388229 0.2608706 0.17433064 0.13468291 -0.96006393 0.2766377 0.020215485 -0.11211553
-0.06448851 -0.009342179 -0.101185165 0.20883855 -0.0106965 -0.08623724 -0.05393271 0.062409945
-0.12688224 -0.060825802 -0.09796177 -0.1618828 -0.08162032 0.092836395 0.10924433 -0.044864103
-0.11002721 -0.06815598 -0.0049109757 0.13351329 0.118966356 -0.13037582 -0.061456323 0.10409655
0.16066392 -0.123293296 0.071889415 0.07728933 -0.13136667 0.040289477 0.119349286 0.008204266
-0.10993293 0.06887157 -0.02406016 -0.15730944 0.1385452 -0.12842345 -0.03257899 -0.15655003
0.13604496 0.06797193 -0.09191287 0.09013729 0.22553107 -0.08538848 0.3254104 0.22079588
0.07782154 -0.14374162 0.19622104 0.031349223 0.18077147 0.19757557 -0.80150294 -0.5197355
0.14728215 0.123556174 -0.006192863 0.30760098 -0.9949941 0.3541311 0.21906932 -0.059398264
0.085024595 -0.01588589 -0.02728285 0.2598603 0.1103127 0.11025657 -0.024973413 -0.11261684
-0.12436013 -0.045593083 -0.05340638 -0.11395418 0.14698409 0.10500379 0.03466652 -0.007239828
0.106365964 0.019109458 -0.07764074 -0.02923689 0.066403635 -0.17271319 -0.062859476 -0.11916895
0.039787397 0.15525539 -0.09337282 0.099209934 -0.08987627 -0.006195859 -0.1793393 -0.15545493
0.1219302 -0.05583431 0.115371004 0.12977943 -0.17487434 0.078127936 0.11633761 0.022988454
0.14161347 -0.078169756 -0.16453499 -0.13376608 -0.025366187 -0.04792367 -0.0729921 -0.025992766
-0.017450526 0.05349095 -0.10723819 -0.033762127 0.07546471 -0.12589963 -0.1697599 0.052767813
-0.013572633 -0.0684025 -0.13823247 0.092587516 0.16064955 0.023723051 0.020258576 0.15368472
0.159865 -0.061850794 0.054999575 -0.146599 0.096447214 0.017186731 -0.017112717 0.010503516
-0.034630317 0.0326982 0.025593653 -0.117802605 -0.095793486 0.06776111 -0.17603403 0.08894093
0.053217366 -0.021125764 0.16455196 0.13877213 -0.026833942 -0.15952972 0.0012378991 0.09335004
0.078652464 0.15652078 0.062635794 -0.07233554 -0.04683891 0.08316734 -0.02352926 0.09370591
0.13664521 -0.084027626 -0.15671754 -0.088760115 -0.043592393 0.046038434 0.015804961 -0.16151586

layer4.bias f4 [24]
00000000: 882c a03b ba92 6b3e f674 83bd ce49 2bbe
00000010: 3592 e83d f497 cabc bcd2 25bd 79a8 2abe
00000020: 6aae a0bd 9068 243d 588f 733d 2ff9 ae3d
00000030: b5f3 d5bc af36 eb3d f5a9 cc3d 0cc2 023e
00000040: 1b12 343d d485 02bd c79b 103d df65 0d3e
00000050: 9f1e 9fbd 5c7c c33d 3dab 32be 5476 7cbd
0.004888121 0.2300519 -0.06418793 -0.16727373 0.11356012 -0.02473066 -0.040484175 -0.1666583
-0.07845767 0.04013878 0.059462875 0.08543622 -0.026117185 0.114850394 0.09993354 0.12769336
0.04396258 -0.03186591 0.03530481 0.13808392 -0.077695124 0.09545204 -0.17448135 -0.061636284

layer5.weight f4 [24, 24]
00000000: a2bd 0ebe 3014 9abd a18f f23d ac0d 26bd
00000010: 1889 163e 7727 1ebe 14b5 e23d 40e1 403e
00000020: 58fa ed3d 747f 083d 2059 343c f462 32be
00000030: 2b2a 88bd f48e 093c cd1b 6cbd d296 dcbd
00000040: 6ff7 6d3c 6023 55bd 2488 a8bd 23ea 7dbd
00000050: 0052 3a3e 4f2d 34be 6295 a4bd 4b91 4fbe
00000060: e072 683c 43e0 b4bd 95c8 50be 1aec f9bd
00000070: 1880 c53d f770 cbbd 7038 09be 1cfa 073e
00000080: b082 e33d 25f2 babd e0b2 7f3d c0f8 37bd
00000090: f18a efbd 0dd7 07be 0867 453d d029 e93d
000000a0: aa3b 503e 3490 443e 74bb 323d 4a17 30be
000000b0: 5ccc 75bd 4074 593b 7fcd 4bbe 44fb 4c3e
000000c0: 1bdc c5bd 8bb3 03be 446f d73d beda 98bd
000000d0: 14b8 333e b875 f4bc 46c6 423e 30d5 74bd
000000e0: e034 5e3d 160a 193e 0a66 18be 00f3 b13a
000000f0: 25fa 0abe 9ed3 3cbe a4fd 50be c1eb 35be
00000100: 083f 9c3d be0d 163e 8c61 49bd 42d1 8bbd
00000110: 68b2 0e3e ec12 70bd 1e0b 02be 8c43 03be
00000120: 7329 f3bd 5ddc 7f3e 179a 313d f6e2 4a3e
00000130: 1d3d 993e aa08 0ebe 906b c33d 7585 353e
00000140: 74c5 d3bd 9cfb b73d 087a 863d 8bab 4b3e
00000150: 4786 e93c a69a b33e e21f 1fbc 9f18 11be
00000160: 39ad b43d 880c 08bd 0085 813e 0428 ac3e
00000170: f1a3 3dbe d48e 303d 21a7 43be ed6e 3e3d
00000180: ea18 3cbe 5719 fb3d c043 9abc 6412 2a3e
00000190: b4f0 cfbd 1407 b3bd d8cc 703d e4d7 0cbe
000001a0: 2025 df3c 4cda 07bd 303d fcbc a6d1 b83c
000001b0: 604a 44bc 9610 35be ca0c 473e 3986 68bc
000001c0: 78c1 a73d 78a0 903d 42d0 8c3c dfda 4cbe
000001d0: 7abc 493e 37bb bebd 3441 413e ecbd 4e3e
000001e0: f0a4 ca3d e85f f23d 39d0 5ebd e8af 1c3e
000001f0: 4e8d d23d f8a3 8abd c45c f23d 0839 20be
00000200: 14b7 cb3d 8004 343e 4c25 34be ed14 4abe
00000210: 59b6 903c cb14 573c af6a 173e 897e 42be
00000220: d52a dfbd 00a9 2bba 2ba0 1d3e a0d4 d0bd
00000230: 7071 f43d 121f 64be 5630 333e 6d34 143c
00000240: 4c93 14be ffc6 e33b 900d e63c 451d 25be
00000250: 2eaa c7bd da8a 1c3e b8b2 d3bc 80ca 6cbd
00000260: 51ae 133c a4f4 2f3e 3a85 b3bd 62d9 393e
00000270: 4455 12bd 2524 163e a0dd 1fbe fd4f 2ebe
00000280: f3c6 b4bd 98bb c13c 5db6 a7bc aabf c9bd
00000290: a49f 61bd cfe2 13be 4c69 27be c767 e23d
000002a0: 23b5 8abd 4b13 c63c 2c35 9a3e a5f9 a9bd
000002b0: e0db 833e 6709 953d 64df ecbd 1333 cbbd
000002c0: 5d82 993b 7081 a93d f024 223c ce87 c93d
000002d0: 83cc 38bd 333b bb3e d6c7 643d f435 ba3c
000002e0: 990c 893e 0900 d3bd 713f 703e 9885 9cbc
000002f0: 53c8 bd3d 95b3 893e fefb e4bd ccde a13e
00000300: e756 d83d be91 0e3e da46 043e d268 16be
00000310: 8c9e 43be 32b4 8cbd 1ed0 f2bd 3475 2b3d
00000320: f03b 8abc 58e1 b03d c6b4 313e 59f7 3a3e
00000330: 5fc0 aebd f94e 31be 2c70 0d3d 519c 193d
00000340: ecb4 38be 7bc3 36be 63df 353e 886a fbbd
00000350: 20b3 47be b735 5cbd 14b8 e53d d6d3 c43d
00000360: 508f 673c 5614 233e d9df 27be 128f c2bd
00000370: ef72 f6bd cc69 ec3d a032 683d f97b f4bd
00000380: a0f0 153c 9ed3 0ebe d03d 943d 892d c8bd
00000390: b07a 083c 66ce f9bd 0c0e 42bd 6fd5 b3bd
000003a0: 55fc f8bd 7002 4d3d 241a 7dbd c04b 01bc
000003b0: b3b2 adbd a078 313d 8f8a 0cbe 240d 133e
000003c0: de33 04be 0023 c1bc ea0a ddbd dcaa 8d3d
000003d0: 9806 e83c 10fc d2bc 9850 c23d 22dc 2f3e
000003e0: d8f3 4bbe dc28 e33d 580c 903d 40d7 c03d
000003f0: ac49 43bd 8c81 123d 892a 1dbe 6c41 df3d
-0.13939527 -0.07523382 0.11843801 -0.040540382 0.14700735 -0.15444742 0.11069694 0.18835926
0.11620015 0.033324674 0.011007577 -0.1742056 -0.06648668 0.008395899 -0.0576437 -0.10770954
0.014524325 -0.05203569 -0.08229092 -0.06199087 0.18195343 -0.17595409 -0.08036305 -0.20270269
0.014187545 -0.08831837 -0.20389016 -0.12203236 0.096435726 -0.09933656 -0.13400435 0.13279003
0.11108911 -0.09128217 0.062426448 -0.04491496 -0.11696423 -0.13265629 0.04819396 0.11384928
0.2033526 0.19195634 0.0436358 -0.17196384 -0.060009345 0.0033180863 -0.1990261 0.20017725
-0.096611224 -0.12861459 0.10519269 -0.07463597 0.17550689 -0.029841289 0.19020948 -0.059773624
0.054249644 0.14945254 -0.14882675 0.0013576448 -0.13571985 -0.184401 -0.20409256 -0.17765714
0.0762921 0.1465368 -0.049165294 -0.06827022 0.13935244 -0.058611795 -0.12699553 -0.12818736
-0.1187314 0.24986406 0.043359842 0.19813141 0.29929438 -0.13870493 0.09542 0.17726691
-0.103403956 0.089835376 0.06566244 0.19889657 0.028506411 0.35078925 -0.009712191 -0.14169548
0.08822102 -0.033215076 0.25296783 0.3362428 -0.1851957 0.04310496 -0.19106723 0.046492506
-0.18368879 0.122606926 -0.018831134 0.16608578 -0.10153332 -0.087415844 0.058789104 -0.1375423
0.027239382 -0.03316717 -0.030790895 0.022560906 -0.011980623 -0.17682108 0.19438472 -0.014192157
0.08191198 0.07061857 0.017189149 -0.20005368 0.19700804 -0.09313052 0.1887253 0.20189637
0.098947406 0.11834699 -0.054397795 0.15301478 0.10280858 -0.06769556 0.118341 -0.15646756
0.09947029 0.17579842 -0.17592353 -0.19734545 0.017665075 0.013127516 0.1478679 -0.18993582
-0.108968414 -0.0006548315 0.1539313 -0.10196805 0.11935699 -0.22277477 0.17498907 0.009045702
-0.14509314 0.0069512124 0.028082639 -0.16124447 -0.09749256 0.15287343 -0.025842056 -0.057810307
0.009013728 0.17183167 -0.08765645 0.18149331 -0.035725847 0.14662226 -0.15611887 -0.170227
-0.08827009 0.023649022 -0.0204727 -0.0985101 -0.055083886 -0.1444199 -0.16348761 0.1105495
-0.0677283 0.024179121 0.30118692 -0.08299569 0.2575369 0.07277184 -0.11566046 -0.09921851
0.00468473 0.08276641 0.009896502 0.09840356 -0.045116913 0.36568603 0.05585464 0.022730805
0.26767424 -0.10302741 0.23461701 -0.019106671 0.092667244 0.26894823 -0.11180876 0.31615293
0.1056345 0.13922784 0.12917653 -0.14688423 -0.1910345 -0.06870307 -0.118561015 0.04185982
-0.016874284 0.08636731 0.17354116 0.18258418 -0.085327856 -0.17315282 0.034530804 0.03750259
-0.18037766 -0.17848007 0.17760997 -0.122761786 -0.19501925 -0.053762164 0.11216751 0.09610717
0.014133289 0.15925726 -0.16393985 -0.09499945 -0.120336406 0.11543617 0.056688905 -0.119377084
0.009151608 -0.13947913 0.07238352 -0.0977431 0.008330032 -0.121975705 -0.047376677 -0.087809436
-0.121575035 0.050051153 -0.061792508 -0.007891595 -0.0848135 0.043327928 -0.13724731 0.14360482
-0.12910411 -0.02357626 -0.10793097 0.069173545 0.028323457 -0.025754958 0.09488028 0.17173818
-0.19917238 0.11091778 0.070336044 0.09416056 -0.04767768 0.035768077 -0.15348257 0.1090115

layer5.bias f4 [24]
00000000: 7dab 153e 80bf 35bd 4c6c 07be 4ec8 b03d
00000010: dfc4 adbc 5981 243e b935 39be 4b29 3d3e
00000020: 9a52 f63c a6e6 1abe 6e8e 38be 8a70 0d3d
00000030: ac32 833d 60ba 803e a092 22be 8663 1fbd
00000040: 1fd8 0e3e 39e8 a23d 04a5 233d 3133 91bd
00000050: cbf7 db3d 1324 5f3e a998 dabd 4840 df3d
0.14616199 -0.04437208 -0.13224906 0.08631955 -0.02121204 0.16064967 -0.180869 0.18472783
0.030068684 -0.15127048 -0.18023083 0.034531154 0.06406149 0.25142193 -0.15876245 -0.038913272
0.13949631 0.07954449 0.039952293 -0.07089842 0.10740622 0.21791105 -0.10673649 0.109009326

layer6.weight f4 [3, 24]
00000000: 08c6 0a3d fccd 173e e098 a33c 644a 34be
00000010: 8f9c 023e aa12 cabd 1893 c7bd 7cb2 75be
00000020: f8a0 2b3e 504c bb3d d5d1 cbbd 7fd8 0e3e
00000030: 5079 603d 21d7 42be 1069 163e ba52 49be
00000040: 4284 4bbe 3f42 6e3d 5428 52be 19ab b53b
00000050: 4dd2 163e 748e a9be b3b0 8bbe 0e8e 74bd
00000060: 9822 b23b 1497 e43d b02e 663d dcff 9ebe
00000070: f3e3 32bd 0bc7 42bd 6ad3 bfbd 26e8 5abe
00000080: acd7 64bd 6c9d 973d 3378 44be 52ae 53be
00000090: 2077 1c3e 7b26 75be 4441 bf3d f70c eebc
000000a0: 9a2b 87be 4345 283e e16b 89be aa85 35be
000000b0: e7bc 2f3d 6b7a 3fbe 0a15 a7bd c83c 6fbe
000000c0: 6bce 3abc c4b5 0a3d ac27 023d 1a3a 30be
000000d0: 50ae 0b3d 4618 253e fc84 5b3c 489d c0be
000000e0: e96d 9e3d a012 453d a216 1bbe 2cba 2b3e
000000f0: 1c57 9c3d 1d22 92bd 2078 b93d 411e 6fbe
00000100: ba2a 02be f7d2 b6bd 8037 babd 97be 35be
00000110: bfc6 17be 6836 06be 919d 7bbe defa b0be
0.033880264 0.1482467 0.019970357 -0.17606503 0.12755035 -0.09866841 -0.09744853 -0.23993868
0.16760623 0.09145415 -0.09952132 0.13949774 0.054803193 -0.19027378 0.14688516 -0.19660464
-0.19874671 0.058168646 -0.20523196 0.005544078 0.14728661 -0.33116496 -0.27283248 -0.059705786
0.005436253 0.11161628 0.05619687 -0.3105458 -0.04367442 -0.047553103 -0.09366496 -0.2137762
-0.055869743 0.07403073 -0.19186477 -0.20671967 0.15279818 -0.2394046 0.0933862 -0.029058916
-0.26400453 0.16432671 -0.26840118 -0.1772677 0.04290476 -0.18699042 -0.0815831 -0.2336303
-0.011401753 0.03386475 0.031776115 -0.17209664 0.034101784 0.16122541 0.013398405 -0.37619996
0.077358074 0.048113465 -0.15145352 0.16770238 0.07633802 -0.07135413 0.09056115 -0.23351385
-0.12711611 -0.08926957 -0.09092617 -0.17748486 -0.1482191 -0.13106692 -0.24571826 -0.34566396

layer6.bias f4 [3]
00000000: e408 5abd f7a8 03bd c4bf 5abe
-0.053231135 -0.03214356 -0.21362215
